models/best_graphsage_model.pth (torch, 428261 bytes, 20 tensors)

conv1.lin_l.weight f4 [128, 21]
0.091184 -0.124245286 0.1889392 -0.18557592 0.036769677 -0.17105313 -0.21568695 -0.19031642
0.039376188 -0.051480677 -0.041541323 -0.11968995 0.18653996 0.13292168 -0.17686327 0.15161678
0.031212104 -0.108059056 0.044962946 0.11302841 -0.16500886 -0.054274008 -0.005960499 0.079737395
-0.2140334 -0.113910764 -0.10904872 0.015720604 -0.20993856 0.032786552 0.032212224 -0.12027551
-0.019032186 0.19856802 -0.008026294 -0.16581479 -0.062025864 0.056785658 0.03893091 0.2104026
0.17042409 0.061589018 -0.011020677 0.01061137 0.08455229 -0.029537965 0.14374183 -0.07186655
0.055973694 -0.18692473 0.14482504 0.13826571 -0.079541005 -0.030853273 0.07376245 0.17954597
-0.1437448 -0.11832712 0.17172992 -0.21041471 0.104691595 -0.08663184 0.12969944 0.08743735
-0.04359644 0.050687406 0.11984821 0.07730373 0.1344144 0.026314134 -0.038598694 0.06971104
0.14650032 0.09745381 0.054237727 -0.12839846 -0.13146535 -0.08123248 -0.21063967 0.21171886
0.14715399 -0.13114275 0.19531175 0.14595406 -0.11841637 0.065036595 0.19183937 -0.034686465
0.11490337 0.120397724 0.21519023 0.10851708 0.19677383 -0.21551973 -0.08900712 -0.20206952
0.21654667 0.19913496 -0.13260123 0.17708422 0.14157738 -0.112501845 0.14983676 0.008030613
-0.21523924 -0.2867543 0.035309043 -0.13147706 -0.1641524 0.071505845 -0.17363909 0.19792967
-0.09604772 0.18585432 0.070782505 0.12491194 -0.015625082 0.11181979 0.11844486 -0.03353137
-0.12830602 -0.08916564 0.12973416 0.16790792 -0.20530047 -0.08914644 0.005392341 0.007894944
0.00040163117 -0.06406561 -0.09808737 0.07457056 0.0038453855 -0.059270475 -0.12163158 -0.023485702
-0.026607826 -0.190978 0.042146478 0.04984281 0.03423863 -0.11448249 -0.19238828 0.13565442
-0.032871876 -0.026326412 0.10172389 0.15432818 -0.20170604 -0.11578457 -0.07334698 0.16284487
0.06660264 -0.04985431 0.18007971 -0.08126464 0.09399213 0.013578981 -0.11820475 -0.14208287
-0.21738134 0.16721892 -0.05593972 -0.08514038 0.04041829 -0.14864028 0.11334406 -0.12890258
0.20248683 -0.03214453 -0.03413181 0.16495521 0.060220778 -0.12938146 -0.19012317 0.068373285
-0.11672453 0.10338579 -0.003987758 0.07725927 0.1822182 0.19827424 0.2115386 -0.093988016
0.10471132 0.09130914 0.12823318 -0.13648 0.06529345 -0.07778471 0.0038072334 0.08127102
0.086750545 0.19539729 -0.08594711 -0.18180452 -0.024181591 -0.16002919 0.0211011 -0.18099023
0.011277266 -0.066272765 -0.14116937 -0.016971258 0.15686822 -0.14366138 -0.2064339 -0.017136628
0.17392966 -0.11473508 -0.18799427 0.087111495 0.19078074 -0.10121325 -0.2107005 -0.039989587
0.18175328 0.0014399185 0.009065564 -0.14265718 -0.21110192 0.10054487 0.116699815 0.06983566
0.04679883 -0.0032124745 -0.1455094 0.026180891 -0.09186848 -0.21568605 -0.047530252 -0.090220906
-0.008679664 0.08248484 0.07209264 0.045527596 0.027970342 0.009053468 0.19623369 0.057792567
0.112326175 -0.10507239 0.015877543 0.15780541 -0.17576694 0.19252238 0.09302411 -0.07178882
0.033222668 0.03227775 0.18451387 0.14932293 -0.044963386 -0.05958613 0.12763336 -0.10569602
00000000: adbe ba3d 5074 febd 4779 413e 9d07 3ebe
00000010: cd9b 163d 8d28 2fbe 0add 5cbe 4fe2 42be
00000020: ed48 213d 67dd 52bd 3c27 2abd 0120 f5bd
00000030: 5504 3f3e 9f1c 083e a51b 35be 6e41 1b3e
00000040: 87b0 ff3c 114e ddbd 112b 383d 707b e73d
00000050: 15f8 28be 6c4e 5ebd 4a50 c3bb 5c4d a33d
00000060: 922b 5bbe 0c4a e9bd ef54 dfbd 7fc8 803c
00000070: 22fa 56be 314b 063d f7f0 033d 0253 f6bd
00000080: 63e9 9bbc 6a55 4b3e b880 03bc 5acb 29be
00000090: d50e 7ebd 1498 683d 0576 1f3d c773 573e
000000a0: a783 2e3e c444 7c3d 1290 34bc 50db 2d3c
000000b0: c029 ad3d 9af9 f1bc 0f31 133e c52e 93bd
000000c0: ac44 653d 3269 3fbe 044d 143e 8795 0d3e
000000d0: 65e6 a2bd 01c0 fcbc c410 973d e6da 373e
000000e0: d631 13be 7d55 f2bd f8d9 2f3e f476 57be
000000f0: 8c68 d63d 096c b1bd eecf 043e 5a12 b33d
00000100: 2e92 32bd 999d 4f3d fa72 f53d 6b51 9e3d
00000110: eea3 093e bd90 d73c aa19 1ebd a9c4 8e3d
00000120: 2e04 163e dd95 c73d 6128 5e3d e37a 03be
00000130: da9e 06be 375d a6bd edb1 57be d4cc 583e
00000140: 89af 163e 494a 06be ceff 473e fb74 153e
00000150: 4884 f2bd e831 853d 8a71 443e 6513 0ebd
00000160: 7552 eb3d 1593 f63d d45a 5c3e 343e de3d
00000170: 147f 493e 34b1 5cbe 5d49 b6bd 50eb 4ebe
00000180: 69be 5d3e 09ea 4b3e 9ec8 07be 9155 353e
00000190: a9f9 103e 5e67 e6bd cf6e 193e d592 033c
000001a0: ad67 5cbe 76d1 92be 37a0 103d eca1 06be
000001b0: 9117 28be a871 923d 72ce 31be 13ae 4a3e
000001c0: abb4 c4bd 9850 3e3e 6bf6 903d d5d1 ff3d
000001d0: 2c00 80bc c601 e53d 3893 f23d 3158 09bd
000001e0: a762 03be 7a9c b6bd 08d9 043e 0ef0 2b3e
000001f0: 493a 52be 6992 b6bd 3cb2 b03b cc59 013c
00000200: 0692 d239 d534 83bd 08e2 c8bd 73b8 983d
00000210: dd02 7c3b 99c5 72bd fa19 f9bd 1665 c0bc
00000220: a8f8 d9bc bd8f 43be c9a1 2c3d f927 4c3d
00000230: ce3d 0c3d cc75 eabd 6f01 45be fee8 0a3e
00000240: a9a4 06bd 7daa d7bc 9d54 d03d 3508 1e3e
00000250: 078c 4ebe 7620 edbd f136 96bd cec0 263e
00000260: f766 883d 0834 4cbd d166 383e 136e a6bd
00000270: f27e c03d 607a 5e3c 5515 f2bd 2c7e 11be
00000280: 3799 5ebe 703b 2b3e 0c21 65bd 145e aebd
00000290: a68d 253d 2835 18be ee20 e83d 0aff 03be
000002a0: b558 4f3e fca9 03bd cccd 0bbd 05ea 283e
000002b0: 10aa 763d 937c 04be a6af 42be 4b07 8c3d
000002c0: 450d efbd eebb d33d bdab 82bb 1c3a 9e3d
000002d0: 6897 3a3e 6708 4b3e 939d 583e ca7c c0bd
000002e0: e372 d63d 4900 bb3d 8f4f 033e 6ac1 0bbe
000002f0: 93b8 853d 974d 9fbd c782 793b 6c71 a63d
00000300: 45aa b13d 3a16 483e 0a05 b0bd f72a 3abe
00000310: 7918 c6bc b1de 23be 37dc ac3c 8155 39be
00000320: 48c4 383c 04ba 87bd b48e 10be 4f07 8bbc
00000330: 10a2 203e f81b 13be 6963 53be 1d62 8cbc
00000340: 9e1a 323e 3afa eabd 9281 40be 8367 b23d
00000350: 075c 433e e448 cfbd dfc1 57be 1fcc 23bd
00000360: 881d 3a3e a6bb bc3a bb87 143c b914 12be
00000370: 1a2b 58be 78ea cd3d 5000 ef3d 0006 8f3d
00000380: 21b0 3f3d 6188 52bb 6b00 15be 4f79 d63c
00000390: 8b25 bcbd cedc 5cbe 15af 42bd bdc5 b8bd
000003a0: 2635 0ebc d0ed a83d 4ea5 933d 257b 3a3d
000003b0: 0f22 e53c ff54 143c 7cf1 483e e6b7 6c3d
000003c0: 440b e63d 3130 d7bd 9f11 823c be97 213e
000003d0: 40fc 33be 9624 453e 6d83 be3d 0406 93bd
000003e0: 7e14 083d ad35 043d 34f1 3c3e 1ce8 183e
000003f0: 872b 38bd 9610 74bd 52b2 023e 2877 d8bd

conv1.lin_l.bias f4 [128]
-0.04526856 -0.0187821 -0.1592634 0.10793324 -0.10922176 0.0365507 -0.18860033 -0.012358957
0.053727333 0.12988642 -0.196177 0.20948523 0.092603736 -0.09024313 -0.15008827 -0.19480477
0.1039584 -0.13545044 -0.19626063 -0.123823196 -0.11612286 0.17439097 0.1859464 0.11596046
-0.029555563 0.07032009 0.022947596 0.017711345 0.16491237 0.0046093967 0.04634952 -0.12354626
0.07609478 0.014855471 -0.08789693 -0.05198942 -0.14280017 -0.12650743 -0.15524526 0.18641107
0.0640204 0.110039555 0.13064836 -0.21892934 0.10783154 0.19020134 0.099241234 -0.0355131
0.08527908 -0.1359376 0.073164545 0.14471854 -0.14615259 0.19072372 0.05217588 -0.14047013
0.18399337 0.07398785 0.14251494 0.046307545 -0.1865796 -0.12055656 -0.12258888 -0.20762059
-0.18373044 0.19268116 0.20901015 0.017479157 0.07385298 -0.16153428 -0.062743336 -0.19972052
-0.18395066 0.19264919 -0.10770389 -0.0687503 -0.108882315 0.033513296 0.014920023 0.07060221
0.16210686 -0.011666781 0.06661695 0.020844873 -0.038697578 0.08681525 0.11732269 -0.16950463
-0.056834467 -0.11813014 -0.06810753 -0.07764123 -0.14577565 0.03578409 -0.12561159 -0.04818347
-0.13849422 -0.1246098 -0.084160924 -0.09748522 0.2087859 0.104762286 0.021058379 -0.09129358
0.013321931 -0.19044587 -0.15593135 0.001152625 -0.09671538 0.12715057 -0.12754016 -0.019836865
0.09137502 0.14845444 0.19476655 -0.20487131 0.13849272 0.11283047 0.041646607 0.0399812
0.07948449 -0.07742159 -0.030103356 0.07369004 0.20717089 0.20589212 0.21957695 -0.04639688
00000000: 876b 39bd ebdc 99bc f215 23be 1a0c dd3d
00000010: a8af dfbd 30b6 153d 7220 41be 397d 4abc
00000020: 3111 5c3d f200 053e a0e2 48be 4c83 563e
00000030: 07a7 bd3d 64d1 b8bd bdb0 19be e77a 47be
00000040: 24e8 d43d 85b3 0abe 8cf8 48be 0497 fdbd
00000050: d2d1 edbd 8c93 323e bc68 3e3e ad7c ed3d
00000060: 821e f2bc fb03 903d 99fc bb3c 6217 913c
00000070: cade 283e 6c0a 973b ffd8 3d3d d205 fdbd
00000080: 94d7 9b3d 5d64 733c 4e03 b4bd dcf2 54bd
00000090: 353a 12be 2a8b 01be 9df8 1ebe 8be2 3e3e
000000a0: 211d 833d 6b5c e13d afc8 053e 032f 60be
000000b0: c8d6 dc3d 24c4 423e fd3e cb3d 2f76 11bd
000000c0: cca6 ae3d 3a33 0bbe 4bd7 953d 1931 143e
000000d0: 06a9 15be 144d 433e 60b6 553d 67d7 0fbe
000000e0: c268 3c3e f186 973d 70ef 113e fbac 3d3d
000000f0: b90e 3fbe 5ce6 f6bd e10f fbbd 7e9a 54be
00000100: d523 3cbe 364e 453e c206 563e 7330 8f3c
00000110: 3b40 973d 3e69 25be 947f 80bd 8983 4cbe
00000120: 905d 3cbe d445 453e db93 dcbd f5cc 8cbd
00000130: b1fd debd 3d45 093d 1d73 743c e497 903d
00000140: 57ff 253e 0726 3fbc 786e 883d dec2 aa3c
00000150: 5a81 1ebd 32cc b13d e146 f03d 9f92 2dbe
00000160: 42cb 68bd 37ee f1bd f67b 8bbd 5d02 9fbd
00000170: 3646 15be 5792 123d 53a0 00be 085c 45bd
00000180: 6ed1 0dbe 6c33 ffbd 905c acbd 55a6 c7bd
00000190: f9cb 553e 9c8d d63d 9f82 ac3c 21f8 babd
000001a0: 3a44 5a3c 3e04 43be 78ac 1fbe ad13 973a
000001b0: b712 c6bd c233 023e e399 02be ec80 a2bc
000001c0: d422 bb3d 7104 183e e270 473e c9c9 51be
000001d0: 09d1 0d3e a913 e73d a295 2a3d 54c3 233d
000001e0: c4c8 a23d 368f 9ebd 509b f6bc ceea 963d
000001f0: 9b24 543e 62d5 523e c8d8 603e a80a 3ebd

conv1.lin_r.weight f4 [128, 21]
0.08268753 -0.17874531 -0.15052056 -0.16066848 0.12896883 -0.010833749 0.16738498 0.008358798
0.014836032 0.09584491 -0.12400896 -0.16160347 0.0027507867 0.14169428 -0.07536139 0.25428563
-0.084231034 0.06267646 0.08467991 -0.012013656 0.4794077 0.0013365757 -0.0002562502 -0.00212323
0.42784765 -0.097038716 -0.005381687 -0.017592233 0.02813964 0.018458787 -0.14234635 0.010898972
0.04548106 -0.12998095 0.0037913881 0.04311804 0.09028004 -0.006287747 -0.007318056 0.02458625
0.049516127 -0.013632921 0.23265252 -0.15619662 -0.1356083 -0.23997079 0.1769387 0.04694455
0.14247866 -0.21794069 -0.08295229 -0.12651086 -0.18673494 0.061433226 -0.06478357 0.017805502
-0.026104786 -0.16278712 0.057395272 -0.23120229 -0.107996784 0.1683137 0.094688855 -0.122324035
-0.001408282 0.17212747 -0.4621442 -0.02422123 0.12908046 0.058414936 0.12889755 0.045292538
0.13013755 0.13182707 0.06791226 0.13696358 0.14649644 0.15214194 -0.014824284 0.11318071
0.14503583 0.2766276 0.21958709 0.07919138 -0.08825188 0.07067053 0.09605306 0.23746602
-0.0054541 -0.08750395 -0.32035926 0.10391112 -0.056178704 -0.094632186 0.25325483 0.13751025
0.23368242 -0.06583519 -0.19509508 0.03385857 0.14420316 -0.29723758 -0.04971108 -0.035984937
0.5837414 0.0925206 -0.18218614 0.2572875 -0.129145 0.074021526 -0.14955688 -0.028252907
0.112565495 -0.10567444 -0.13845757 -0.17209907 0.14497629 -0.019252533 0.13977271 0.0046058455
0.19935745 -0.18452583 0.097454585 0.012813009 0.057571255 -0.05789149 -0.2079103 0.014618213
-0.026572835 -0.010006419 -0.026265558 -0.034660183 0.032013513 -0.04558872 -0.025815072 -0.08200481
-0.028773863 -0.07521707 -0.024288561 -0.02477335 -0.009178881 -0.008858837 -0.035587747 0.015116129
0.005558132 0.1745817 0.4437387 -0.36404622 -0.09577572 -0.106922865 0.23006956 -0.24313632
-0.00946244 -0.1231259 0.13222884 0.0040165414 -0.054408412 -0.1354056 -0.19072 -0.3556869
0.19602643 -0.028116034 -0.026605275 0.27412695 -0.15854223 -0.31912097 -0.1449624 0.2596122
0.13971463 -0.0044762637 0.34444925 -0.35149089 -0.1943169 0.20895216 -0.07297148 0.09216302
0.16223769 0.023637474 0.04327435 -0.093892425 0.122949466 0.22044444 0.09538658 -0.00012236448
-0.056989655 0.12762207 0.24925095 0.15800887 -0.34152186 0.31444877 0.010440603 -0.12327302
-0.30386555 0.037542216 0.07513804 0.023493538 0.16514908 0.14453535 -0.035578202 -0.21759908
0.076895125 0.06449576 -0.18457028 0.017854828 0.035737842 0.11633411 0.015345943 0.07330435
-0.2532117 -0.5226066 0.24148898 0.04707759 -0.199104 0.12101284 0.07167827 -0.22674085
0.10216118 0.03395136 -0.05487635 -0.016087433 0.061439916 -0.17750435 -0.04176088 -0.05958837
0.111982085 -0.024785051 -0.1962946 -0.003138613 -0.01348326 -0.16792166 -0.096700095 0.0013742201
-5.644789e-05 -0.009612209 -0.36291403 0.05052989 0.05400437 0.05263223 0.12841058 0.09682191
-0.01838398 0.0077766753 0.048114873 -0.012280875 0.020129113 0.020661987 0.040262092 0.01750822
0.052944824 0.025142198 -0.07645933 0.26210243 0.23459041 -0.016763778 -0.01589233 -0.26021376
00000000: 1458 a93d 0309 37be 1022 1abe 4786 24be
00000010: 6810 043e 0980 31bc f866 2b3e 57f3 083c
00000020: d412 733c 564a c43d 69f8 fdbd 617b 25be
00000030: 8b46 343b 4e18 113e 1357 9abd ba31 823e
00000040: 5281 acbd 845c 803d a96c ad3d edd4 44bc
00000050: ed74 f53e 0a30 af3a 5259 86b9 e325 0bbb
00000060: d90e db3e 3cbc c6bd dd58 b0bb 961d 90bc
00000070: 1a85 e63c e236 973c 3ec3 11be 9a91 323c
00000080: 594a 3a3d ba19 05be f078 783b 8b9c 303d
00000090: bee4 b83d 7209 cebb 4ecc efbb 1a69 c93c
000000a0: 6cd1 4a3d 9d5c 5fbc 763c 6e3e 02f2 1fbe
000000b0: e7dc 0abe e7ba 75be 6b2f 353e ee48 403d
000000c0: ede5 113e d82b 5fbe e4e2 a9bd 108c 01be
000000d0: 7237 3fbe 68a1 7b3d 40ad 84bd d8dc 913c
000000e0: b4d9 d5bc abb1 26be 4e17 6b3d 4bc0 6cbe
000000f0: 6b2d ddbd 6d5a 2c3e 3bec c13d 0685 fabd
00000100: 1a96 b8ba 2f42 303e 2a9e ecbe 9a6b c6bc
00000110: ab2d 043e 8044 6f3d b8fd 033e ab84 393d
00000120: c742 053e adfd 063e 9515 8b3d 2e40 0c3e
00000130: 2a03 163e 19cb 1b3e 8ee1 72bc 4acb e73d
00000140: 4684 143e 22a2 8d3e 70db 603e 172f a23d
00000150: 67bd b4bd b6bb 903d 77b7 c43d 4b2a 733e
00000160: 4fb8 b2bb 4535 b3bd 2106 a4be 5acf d43d
00000170: a41b 66bd 85ce c1bd 9eaa 813e 7dcf 0c3e
00000180: 724a 6f3e 9ad4 86bd 01c7 47be 49af 0a3d
00000190: fea9 133e 862f 98be d89d 4bbd f164 13bd
000001a0: 1470 153f 717b bd3d 018f 3abe 30bb 833e
000001b0: 963e 04be 9998 973d 7025 19be a472 e7bc
000001c0: bd88 e63d d76b d8bd d2c7 0dbe bd3a 30be
000001d0: aa74 143e 7db7 9dbc 9420 0f3e a2ec 963b
000001e0: 5c24 4c3e 57f4 3cbe 4596 c73d a8ed 513c
000001f0: d6cf 6b3d a11f 6dbd 70e6 54be 3b81 6f3c
00000200: 46af d9bc f7f1 23bc de2a d7bc d6f7 0dbd
00000210: 9a20 033d 3dbb 3abd 217a d3bc 23f2 a7bd
00000220: 2ab7 ebbc 680b 9abd cef8 c6bc 7bf1 cabc
00000230: 0463 16bc a824 11bc 75c4 11bd a4a9 773c
00000240: fe20 b63b 8cc5 323e b831 e33e 4464 babe
00000250: 1026 c4bd 60fa dabd 5b97 6b3e baf8 78be
00000260: 5a08 1bbc 6f29 fcbd ff66 073e 319d 833b
00000270: 5bdb 5ebd c4a7 0abe 1b4c 43be 981c b6be
00000280: 27bb 483e 9953 e6bc 4ef3 d9bc 5e5a 8c3e
00000290: e558 22be d363 a3be 0671 14be e4eb 843e
000002a0: 5a11 0f3e 9fad 92bb a75b b03e 9df6 b3be
000002b0: 02fb 46be 8ef7 553e 1272 95bd f7bf bc3d
000002c0: a321 263e 60a3 c13c 7240 313d ac4a c0bd
000002d0: eecc fb3d 30bc 613e 0a5a c33d f74e 00b9
000002e0: fc6d 69bd 5caf 023e a43b 7f3e 14cd 213e
000002f0: f4db aebe 6eff a03e 100f 2b3c 9176 fcbd
00000300: 4494 9bbe dec5 193d f9e1 993d 8575 c03c
00000310: d71c 293e 1301 143e 73ba 11bd 4bd2 5ebe
00000320: 317b 9d3d 5a16 843d feff 3cbe 4a44 923c
00000330: d861 123d 9440 ee3d 8d6d 7b3c 9720 963d
00000340: f7a4 81be 8cc9 05bf e348 773e 6ed4 403d
00000350: ebe1 4bbe 94d5 f73d 0fcc 923d c12e 68be
00000360: e139 d13d 9510 0b3d 06c6 60bd cbc9 83bc
00000370: 6ca8 7b3d b3c3 35be 750d 2bbd ef12 74bd
00000380: dd56 e53d 050a cbbc 7401 49be 30b1 4dbb
00000390: e4e8 5cbc a8f3 2bbe b30a c6bd 2d1f b43a
000003a0: 76c2 6cb8 877c 1dbc decf b9be 6ef8 4e3d
000003b0: b033 5d3d e594 573d 107e 033e 914a c63d
000003c0: 009a 96bc 7bd3 fe3b 1a14 453d b935 49bc
000003d0: cfe5 a43c 5443 a93c dde9 243d 666d 8f3c
000003e0: acdc 583d 03f7 cd3c b696 9cbd 4a32 863e
000003f0: 7838 703e 3154 89bc a230 82bc bd3a 85be

conv2.lin_l.weight f4 [128, 128]
-0.051735908 -0.037980426 0.09447859 0.08135877 0.061537307 0.07166307 -0.021171192 -0.043983076
-0.0530013 0.06379129 -0.036900133 0.12157162 0.009611985 -0.0135432 0.06494785 0.0770492
-0.056650016 0.09487935 0.03027478 -0.0016227227 -0.07199407 0.028904485 -0.04633261 0.048931412
0.0036972866 -0.034191363 -0.0072399187 0.07946036 -0.06916911 0.006221544 -0.039713632 -0.009881759
0.021511305 0.051302783 0.08267368 -0.016265286 0.1033045 -0.038395613 0.061578255 0.086300045
0.03653823 -0.014587351 0.057933424 0.07343019 0.07360875 0.011093915 -0.010214948 -0.057048354
0.040403683 -0.13644236 -0.07510232 0.15776584 0.08615609 0.09304825 0.08378738 -0.04316691
-0.059481405 -0.034392748 0.0035551225 -0.015147987 0.049968567 0.034036707 -0.012406274 0.03529376
0.025100898 0.07657391 0.03804176 0.06942852 0.0068474994 0.0009033105 0.0059618815 0.027738813
-0.058107518 -0.0138150565 -0.031057565 -0.03864997 -0.007058861 -0.09776163 0.008912113 -0.041813582
-0.06728606 -0.09675864 0.073885836 0.103360005 0.021340428 0.039735336 0.14401582 -0.042906307
-0.06046749 0.030181145 -0.031230815 0.028361943 0.037695874 -0.006188137 0.095069304 0.08771374
-0.07595727 0.07824844 0.019327447 0.089434884 -0.01939154 0.05809776 -0.017768301 0.09581002
0.06941306 -0.06631937 0.04014024 0.10498042 0.09977666 -0.034119926 0.008871801 -0.07013732
-0.02039537 0.040447395 0.10969721 0.022627724 0.081151046 -0.019634727 -0.017770179 -0.054489035
-0.062011525 0.07664122 -0.04787716 -0.07667791 -0.052037593 -0.030606886 -0.00087859866 -0.057914916
0.006039025 0.044441815 -0.14985281 0.057474863 -0.008154886 -0.15521708 -0.04066652 -0.0019610322
0.02593957 -0.03404838 -0.053520087 -0.05405415 0.03506164 -0.045170695 -0.057770345 0.37485516
0.00017513827 -0.01158305 0.014986195 0.009871552 -0.03193732 -0.02741305 -0.14996542 0.07933805
-0.074032426 -0.043245994 0.045619022 0.005227941 0.059049565 0.012996078 0.15040864 0.0049412884
0.06861769 0.11727669 0.31088457 0.072131194 -0.025772333 -0.1765975 -0.04334882 -0.05004062
0.069488645 -0.06770655 -0.04776815 -0.014074073 0.1560258 -0.0037736741 -0.11453927 -0.0011105143
0.122177936 -0.30939972 0.03379311 0.04627353 -0.18976562 -0.17996244 -0.08375991 -0.06556349
0.011222246 -0.0034766365 -0.080360204 -0.061102014 0.04732531 0.1389032 -0.040123675 0.13316931
0.07800594 -0.0356101 -0.061879575 -0.08822564 -0.12181336 -0.02387014 -0.020209964 0.1659122
0.029641531 0.023286026 -0.041926038 -0.08530268 -0.048529543 -0.17641696 -0.08235986 -0.02272295
-0.08587283 0.114133134 -0.06193848 0.06206025 -0.08654539 -0.0119593805 -0.120619744 -0.32218406
0.04971881 0.01909853 0.07624623 -0.07778662 -0.10745827 -0.0031901107 -0.07993597 -0.051777557
-0.022640916 -0.0034665805 -0.019908505 -0.0010882227 0.036070827 0.06437491 0.046161786 -0.083358675
0.044535164 0.036680944 -0.14646646 0.0489082 -0.09351917 0.081651844 0.035039466 -0.030680275
-0.027317641 0.08481667 0.011641561 0.034127455 0.06468524 0.031191455 -0.037159484 0.015295399
0.0076242946 -0.15792885 -0.027115818 0.04855443 -0.096632734 0.25127128 0.017933633 0.017987756
00000000: 08e9 53bd 5d91 1bbd fe7d c13d 6d9f a63d
00000010: 8b0e 7c3d 16c4 923d 356f adbc 9927 34bd
00000020: e417 59bd 02a5 823d 9824 17bd 8bfa f83d
00000030: 967b 1d3c 4ce4 5dbc 6103 853d f9cb 9d3d
00000040: d909 68bd 1b50 c23d d102 f83c 8ab1 d4ba
00000050: a171 93bd 19c9 ec3c 43c7 3dbd 4e6c 483d
00000060: 2d4e 723b 3e0c 0cbd d73c edbb 1dbc a23d
00000070: 89a8 8dbd 18de cb3b c3aa 22bd 1ae7 21bc
00000080: 7a38 b03c de22 523d d150 a93d c73e 85bc
00000090: 4f91 d33d b844 1dbd 7b39 7c3d 14be b03d
000000a0: 1ca9 153d c9ff 6ebc 994b 6d3d 9162 963d
000000b0: 2fc0 963d 41c3 353c 995c 27bc 89ab 69bd
000000c0: 557e 253d 8cb7 0bbe 3fcf 99bd 5e8d 213e
000000d0: 9b72 b03d 1590 be3d b898 ab3d c9cf 30bd
000000e0: c6a2 73bd 69df 0cbd 0ffd 683b 432f 78bc
000000f0: d7ab 4c3d 136a 0b3d af43 4bbc 3190 103d
00000100: 66a0 cd3c c8d2 9c3d add1 1b3d 8a30 8e3d
00000110: fd60 e03b 24cc 6c3a e35b c33b 823c e33c
00000120: 2602 6ebd 8c58 62bc 6f6c febc 6e4f 1ebd
00000130: 054e e7bb 4037 c8bd 1c04 123c b844 2bbd
00000140: 46cd 89bd 6529 c6bd 7551 973d 69ae d33d
00000150: 1fd2 ae3c 85c1 223d e278 133e 86be 2fbd
00000160: c2ac 77bd 733e f73c c4d7 ffbc 4e57 e83c
00000170: fd66 1a3d dbc5 cabb b2b3 c23d 43a3 b33d
00000180: 7c8f 9bbd b840 a03d 9854 9e3c a329 b73d
00000190: 02db 9ebc ebf7 6d3d d48e 91bc 0b38 c43d
000001a0: 6f28 8e3d 73d2 87bd 186a 243d f9ff d63d
000001b0: b557 cc3d 56c1 0bbd 085b 113c 28a4 8fbd
000001c0: 3114 a7bc 2bac 253d eea8 e03d c75d b93c
000001d0: 8532 a63d 02d9 a0bc c492 91bc e52f 5fbd
000001e0: ccff 7dbd 12f6 9c3d d71a 44bd 4f09 9dbd
000001f0: 5f25 55bd 4bbb fabc c251 66ba 3138 6dbd
00000200: 03e3 c53b 9f08 363d 0473 19be c36a 6b3d
00000210: 129c 05bc 3af1 1ebe f091 26bd a984 00bb
00000220: 397f d43c 5076 0bbd e137 5bbd e267 5dbd
00000230: cb9c 0f3d e804 39bd 99a0 6cbd 04ed bf3e
00000240: 52a5 3739 d5c6 3dbc a888 753c 4abc 213c
00000250: b5d0 02bd 5591 e0bc 8990 19be fd7b a23d
00000260: 509e 97bd b622 31bd 03db 3a3d 264f ab3b
00000270: f5dd 713d 80ed 543c b904 1a3e 88ea a13b
00000280: 6e87 8c3d c32e f03d 432c 9f3e 85b9 933d
00000290: 8020 d3bc fad5 34be 888e 31bd 65f7 4cbd
000002a0: 1050 8e3d bba9 8abd 89a8 43bd f196 66bc
000002b0: 3ac5 1f3e bf4f 77bb 9193 eabd ad8e 91ba
000002c0: 6d38 fa3d a469 9ebe a56a 0a3d 5089 3d3d
000002d0: eb51 42be 1348 38be 518a abbd 2746 86bd
000002e0: 83dd 373c 48d8 63bb e493 a4bd 1b46 7abd
000002f0: 2fd8 413d a43c 0e3e b958 24bd 895d 083e
00000300: 94c1 9f3d e5db 11bd 7075 7dbd a5af b4bd
00000310: 4879 f9bd 508b c3bc 5e8f a5bc e3e4 293e
00000320: ccd2 f23c 56c2 be3c a3ba 2bbd 2cb3 aebd
00000330: eac6 46bd a6a6 34be 49ac a8bd 7b25 babc
00000340: 18de afbd a2be e93d 34b3 7dbd e432 7e3d
00000350: b63e b1bd 47f1 43bc 7c07 f7bd 4ff5 a4be
00000360: f3a5 4b3d 8574 9c3c fc26 9c3d 974e 9fbd
00000370: 1513 dcbd 2d11 51bb 78b5 a3bd b414 54bd
00000380: 7179 b9bc 922f 63bb 2917 a3bc b2a2 8eba
00000390: 01bf 133d fed6 833d 2414 3d3d f4b7 aabd
000003a0: 816a 363d c23e 163d 4efb 15be f753 483d
000003b0: fb86 bfbd 1539 a73d 8b85 0f3d 3355 fbbc
000003c0: 3fc9 dfbc 5db4 ad3d 3fbc 3e3c 3bc9 0b3d
000003d0: b279 843d 3985 ff3c 8b34 18bd 8e99 7a3c
000003e0: 38d5 f93b 1ab8 21be fe21 debc 03e1 463d
000003f0: 62e7 c5bd a1a6 803e 8ee9 923c 0f5b 933c

conv2.lin_l.bias f4 [128]
0.00907392 -0.06559529 -0.04334606 0.08793232 0.03540182 0.05368154 -0.06588311 -0.032619514
-0.056541372 0.05837373 -0.072012424 -0.03782801 0.0434024 0.044190947 -0.065502934 0.02434897
-0.055776797 -0.033280414 -0.01524781 -0.0062463265 -0.04772656 0.023618398 -0.048738908 -0.03355595
-0.013328402 -0.033130504 0.019451896 -0.048213907 -0.068019696 -0.014198515 -0.058844384 0.0036798313
-0.04503466 -0.0023736039 -0.0032795365 -0.009900839 0.05491372 -0.055808008 0.07067061 -0.010823046
-0.08792739 0.07082541 -0.06468761 0.05277408 0.07308788 0.031756286 -0.06946445 -0.064331114
-0.016068498 0.06258031 0.07916365 0.07154747 0.0121891145 0.020096648 -0.019150646 -0.04484555
-0.041994393 -0.08026785 -0.016611582 0.068464406 0.036324453 -0.08662179 -0.034755617 -0.07048705
0.018384472 -0.0791873 -0.035538226 -0.08066509 0.083945 0.08803197 -0.032017108 0.0047983653
-0.06109764 0.029574627 0.0009469037 -0.072653465 -0.008717933 -0.071949705 0.05770547 -0.07493176
0.00803319 0.002403735 -0.07314371 0.012363765 -0.031564575 0.022845142 0.080802515 0.016191954
-0.02083871 0.07652499 -0.04708529 0.04466014 -0.0005960009 0.040264316 0.07004621 0.026273364
-0.028566245 0.005326785 0.07612825 0.039753962 -0.073671274 0.054804552 -0.032737765 -0.014708429
-0.00028760335 -0.059027858 0.016016588 0.018921828 0.030184314 -0.013269924 0.051667858 -0.017281473
0.024458518 -0.0046227607 -0.021890596 0.04848684 -0.038417548 0.035098065 -0.06404881 -0.032983053
0.08304595 0.016416617 0.07709089 0.047402687 0.06395215 0.06693291 -0.047944922 -0.014950388
00000000: c7aa 143c d356 86bd a38b 31bd dc15 b43d
00000010: 8001 113d 2de1 5b3d b9ed 86bd 0a9c 05bd
00000020: ed97 67bd 4b19 6f3d 407b 93bd 8bf1 1abd
00000030: b7c6 313d 9101 353d 6726 86bd 7e77 c73c
00000040: 3676 64bd 0b51 08bd f3d1 79bc fcad ccbb
00000050: ed7c 43bd 5f7b c13c 73a2 47bd f771 09bd
00000060: 5f5f 5abc dab3 07bd 9559 9f3c f27b 45bd
00000070: e94d 8bbd e3a0 68bc cf06 71bd 5329 713b
00000080: 4376 38bd 778e 1bbb 7eed 56bb 2137 22bc
00000090: 35ed 603d f096 64bd c1bb 903d 2553 31bc
000000a0: 4713 b4bd ea0c 913d f07a 84bd a229 583d
000000b0: 19af 953d e112 023d 6143 8ebd 08c0 83bd
000000c0: 15a2 83bc 1b2a 803d 8d20 a23d 7b87 923d
000000d0: dab4 473c baa1 a43c d1e1 9cbc f8af 37bd
000000e0: 5002 2cbd 7863 a4bd 0315 88bc 1137 8c3d
000000f0: f3c8 143d c466 b1bd e85b 0ebd 845b 90bd
00000100: 089b 963c f32c a2bd 8890 11bd bd33 a5bd
00000110: 5beb ab3d 1b4a b43d 5f24 03bd 9b3b 9d3b
00000120: 8541 7abd 7d46 f23c a239 783a 57cb 94bd
00000130: a9d5 0ebc 5e5a 93bd 925c 6c3d d375 99bd
00000140: a49d 033c fb87 1d3b 5fcc 95bd 6491 4a3c
00000150: db49 01bd bc25 bb3c ca7b a53d fda4 843c
00000160: f1b5 aabc 22b9 9c3d 81dc 40bd 8ded 363d
00000170: f13c 1cba 32ec 243d 6374 8f3d 3d3b d73c
00000180: c203 eabc 508c ae3b 21e9 9b3d 0dd5 223d
00000190: f7e0 96bd bd7a 603d 0918 06bd 9ffb 70bc
000001a0: 78c9 96b9 32c7 71bd 3835 833c f301 9b3c
000001b0: 1845 f73c 186a 59bc ada1 533d e091 8dbc
000001c0: 3b5d c83c 877a 97bb e853 b3bc 239a 463d
000001d0: b85b 1dbd fdc2 0f3d 062c 83bd 3d19 07bd
000001e0: ff13 aa3d 247c 863c d4e1 9d3d 5229 423d
000001f0: 58f9 823d 1f14 893d e561 44bd 79f2 74bc

conv2.lin_r.weight f4 [128, 128]
0.01135679 0.030639717 -0.030674221 0.012545934 0.063118726 0.0063084587 -0.06920142 -0.04020672
-0.022323906 -0.012021343 0.061891764 -0.20059595 -0.04869635 0.060373623 0.01496477 -0.05483982
-0.011888899 -0.0126274275 -0.06486619 0.009731856 -0.056226727 -0.038039103 -0.10403582 -0.07561513
0.119483426 0.11480187 -0.040875044 0.006456095 0.013448708 -0.045948997 0.06730418 0.005313716
0.03869415 -0.018798444 -0.13150841 -0.11783738 -0.020494927 0.0035043615 0.025112325 0.03326696
0.020232331 0.017085725 0.006030788 0.017766532 -0.08560195 -0.096025795 -0.05863285 0.05074448
-0.078220844 -0.09372997 0.02020369 -0.08174477 0.0154887205 -0.0781419 -0.18853775 -0.030580627
-0.03626017 -0.050034612 -0.052511584 0.07142433 -0.02677109 0.08639823 0.016398018 -0.096684135
-0.07044448 -0.016201599 -0.013265258 0.00877381 0.06958801 0.028614257 0.012071592 -0.042869356
0.07318282 0.021276861 0.042073756 0.026822396 -0.11245615 -0.110299654 0.00641682 -0.2687157
0.0021121013 -0.10808102 -0.03855433 -0.019602435 0.06121481 0.006924977 0.032272685 -0.030074663
0.035709154 -0.045437682 0.021946365 -0.02384539 -0.021086494 0.0013621182 0.053704962 0.04164861
-0.005850607 -0.029870711 -0.021397242 -0.07867966 -0.044724103 -0.02637583 -0.02184633 -0.037509754
-0.045111727 0.016152617 -0.07124608 0.028954618 -0.08779177 0.006882542 -0.06544029 0.054435853
-0.02127608 0.026347907 -0.040348478 0.050923612 -0.010360683 -0.044896137 -0.030446976 0.03297734
-0.03414382 0.038466845 -0.029238813 -0.07423675 -0.015117136 -0.08876422 -0.041051056 0.0018206205
0.061134882 0.016426312 -0.0021907198 0.042537246 0.032184195 0.06680945 0.045489524 0.016947566
-0.033943366 0.056357197 0.020166764 0.00049651426 0.01536578 0.030429153 0.0836347 0.06960377
0.03278611 0.023473583 0.015979081 0.11272253 0.018871766 -0.050517064 -0.05663932 0.030464545
-0.09764571 0.039489087 -0.020491246 -0.039684292 0.021030333 -0.014542049 -0.04169921 0.0830072
0.060089435 0.049602658 0.050297037 0.005780313 0.015246097 -0.03694823 -0.09718092 0.004473281
-0.021983512 0.009669502 0.046314254 0.03576745 0.028149825 0.00046337745 0.06270609 -0.045748804
0.05571033 0.06564402 -0.053807657 0.020792857 0.010666871 0.016655017 0.026478807 0.02320111
-0.12894572 -0.0053207 0.029078938 -0.0016276337 -0.035978112 -0.05115282 0.059397075 -0.034337007
0.040558927 -0.015040768 -0.06588908 0.0655216 -0.025303964 -0.018652918 -0.013643776 -0.121627726
-0.04763972 0.1370913 -0.115898184 0.093627624 0.06868629 0.0275397 -0.0021164948 0.075332075
0.011145472 -0.09355422 0.05713747 0.10460766 0.03465309 -0.027477967 0.05209777 -0.054345652
0.0035357396 0.01455738 0.04091193 -0.059814356 0.03297118 -0.012672859 0.053228382 0.047359563
0.013383056 0.023354454 0.055325102 0.13061306 0.060640473 -0.031439483 0.032192748 -0.035214957
-0.054718673 -0.0020735378 0.04949903 0.07961273 0.026536284 0.03517564 0.06583625 -0.0337627
0.050532874 -0.080057606 -0.031443834 0.05717645 -0.032488935 0.030083414 0.058918674 -0.041588
0.034522787 -0.011889181 -0.0077641695 0.04752244 -0.007176707 -0.037113167 0.031090267 -0.06086907
00000000: d411 3a3c 2500 fb3c 8148 fbbc 768d 4d3c
00000010: 6444 813d 30b7 ce3b 79b9 8dbd cdaf 24bd
00000020: a0e0 b6bc 2bf5 44bc 3882 7d3d 0669 4dbe
00000030: d375 47bd 554a 773d cb2e 753c b89f 60bd
00000040: a8c9 42bc 45e3 4ebc 91d8 84bd 5d72 1f3c
00000050: ff4d 66bd e4ce 1bbd bb10 d5bd 1bdc 9abd
00000060: bab3 f43d 3e1d eb3d 976c 27bd a68d d33b
00000070: f857 5c3c 0435 3cbd c6d6 893d ae1e ae3b
00000080: c27d 1e3d 32ff 99bc 24aa 06be b954 f1bd
00000090: fae4 a7bc 6ea9 653b 5db8 cd3c f042 083d
000000a0: 46be a53c 5df7 8b3c eb9d c53b 1e8b 913c
000000b0: 1350 afbd 2ca9 c4bd 0029 70bd 72d9 4f3d
000000c0: 4032 a0bd 80f5 bfbd 3582 a53c cd69 a7bd
000000d0: 67c4 7d3c dc08 a0bd 0a10 41be 3984 fabc
000000e0: 8b85 14bd 18f1 4cbd 6316 57bd eb46 923d
000000f0: 0c4f dbbc 8ef1 b03d 2355 863c 5502 c6bd
00000100: 3245 90bd 37b9 84bc 8656 59bc 07c0 0f3c
00000110: 2984 8e3d 7268 ea3c edc7 453c c797 2fbd
00000120: e0e0 953d d04c ae3c 8855 2c3d a4ba db3c
00000130: 694f e6bd c9e4 e1bd 3044 d23b 1b95 89be
00000140: 2e6b 0a3b 9559 ddbd 25eb 1dbd 4995 a0bc
00000150: 61bc 7a3d ebea e23b 5d30 043d 245f f6bc
00000160: c343 123d dd1c 3abd ddc8 b33c 6857 c3bc
00000170: 95bd acbc 1a89 b23a bcf9 5b3d bc97 2a3d
00000180: 73b6 bfbb 6cb3 f4bc 4549 afbc cd22 a1bd
00000190: 9f30 37bd 2012 d8bc 13f7 b2bc d4a3 19bd
000001a0: 13c7 38bd 7e52 843c 77e9 91bd 3c32 ed3c
000001b0: 2ccc b3bd f286 e13b 8f05 86bd 21f8 5e3d
000001c0: 2c4b aebc 91d7 d73c 7244 25bd 4795 503d
000001d0: dbbf 29bc 03e5 37bd f06b f9bc 3f13 073d
000001e0: 64da 0bbd 698f 1d3d 3c86 efbc 7009 98bd
000001f0: ddad 77bc 04ca b5bd 2725 28bd e3a1 ee3a
00000200: 9268 7a3d 7990 863c 2e92 0fbb 893b 2e3d
00000210: 93d3 033d 65d3 883d 3953 3a3d 9fd5 8a3c
00000220: 3308 0bbd ced6 663d c534 a53c 8228 023a
00000230: c1c0 7b3c 8f46 f93c ab48 ab3d 6c8c 8e3d
00000240: ba4a 063d ac4b c03c 90e6 823c 12db e63d
00000250: f698 9a3c fbea 4ebd a2fe 67bd c890 f93c
00000260: 79fa c7bd 4fbf 213d 42dd a7bc ff8b 22bd
00000270: ce47 ac3c c641 6ebc cacc 2abd aeff a93d
00000280: 5720 763d 282c 4b3d 4404 4e3d c868 bd3b
00000290: c4ca 793c 0757 17bd ca06 c7bd 9a94 923b
000002a0: c416 b4bc d56c 1e3c 04b4 3d3d e480 123d
000002b0: 769a e63c 78f1 f239 0d6c 803d 1963 3bbd
000002c0: 8430 643d 5f70 863d 6b65 5cbd c855 aa3c
000002d0: 1ac4 2e3c 1a70 883c 15ea d83c 4110 be3c
000002e0: 590a 04be 4459 aebb f436 ee3c 5356 d5ba
000002f0: c95d 13bd 9f85 51bd 594a 733d f6a4 0cbd
00000300: 1e21 263d 8e6d 76bc dbf0 86bd 3030 863d
00000310: 424a cfbc 01ce 98bc 258a 5fbc f517 f9bd
00000320: de21 43bd a961 0c3e 075c edbd d7bf bf3d
00000330: 66ab 8c3d f09a e13c e4b4 0abb b447 9a3d
00000340: 7f9b 363c 5b99 bfbd fb08 6a3d 8a3c d63d
00000350: 66f0 0d3d 7919 e1bc 7964 553d 8c99 5ebd
00000360: deb7 673b 1482 6e3c 4593 273d e6ff 74bd
00000370: ca0c 073d d3a1 4fbc 0106 5a3d 1afc 413d
00000380: 9b44 5b3c d751 bf3c 939c 623d 6ebf 053e
00000390: 2562 783d b0c6 00bd 8bdc 033d 8f3d 10bd
000003a0: b020 60bd 31e4 07bb 7fbf 4a3d 000c a33d
000003b0: 9f62 d93c 5514 103d 28d5 863d c24a 0abd
000003c0: 8ffb 4e3d 3ef5 a3bd 40cb 00bd da31 6a3d
000003d0: 1e13 05bd 7e71 f63c b554 713d 2e58 2abd
000003e0: c467 0d3d d7ca 42bc 936a febb e4a6 423d
000003f0: 952a ebbb fa03 18bd 04b1 fe3c d951 79bd

conv3.lin_l.weight f4 [128, 128]
0.00026483397 0.0142593365 -0.07782749 0.089762606 -0.027580807 -0.06534868 0.03162175 0.071109556
-0.024546629 -0.09883502 -0.044038285 0.01585249 -0.0017195542 0.08195141 0.015511287 0.016797077
-0.08722304 0.0062226057 -0.06595717 -0.075204395 -0.007390136 0.022901602 -0.067564085 0.00013073892
0.060096614 0.1048316 0.0965349 0.026021427 -0.051869784 -0.011839009 0.016226029 0.0573493
0.030528327 -0.016576502 0.021609016 -0.11350338 0.047158506 -0.08481701 0.07009624 0.0044243964
-0.032522462 -0.054313403 0.02982922 0.059482947 -0.036549933 -0.059828583 0.048195213 0.041151248
-0.041762426 -0.011424376 -0.058171008 -0.040695265 -0.029125948 -0.04069241 0.02528423 -0.05726174
0.06347983 0.0493689 -0.0863064 0.0826138 -0.059889644 -0.06317924 0.09473989 -0.04290405
0.01370119 0.07589923 0.019818919 0.011897183 0.057643846 0.057962887 0.005540646 0.014229404
0.017763814 0.02684008 -0.067275375 0.047207132 -0.033326384 -0.06254781 -0.08315048 -0.028342173
-0.029869555 0.01748686 -0.0017764587 0.034075808 -0.07977936 0.05633043 0.00629922 0.09300536
-0.06647678 0.054979917 -0.08566499 -0.08554605 -0.091974385 -0.043630127 -0.007009351 0.0040871375
0.012062667 -0.051060997 -0.048938315 0.057936456 0.027014403 -0.007005667 -0.06857967 -0.057101894
0.057655144 0.0118007045 -0.092731796 0.040183585 0.026834846 -0.08932603 0.008521744 0.07291335
0.005321987 0.052143015 0.0070897364 0.010791247 -0.010479623 0.02883605 -0.08629972 0.05402526
-0.0010415915 0.03189108 0.015914477 -0.06557006 -0.026051028 -0.0576648 0.044683594 -0.044789653
0.07922944 0.00149697 0.061405264 0.041719377 0.0058283405 0.0406991 -0.09054957 -0.06632141
0.09167528 0.05878301 -0.04563517 0.03856207 -0.10829304 0.022012407 0.0026982052 0.0056334552
-0.08126451 -0.049996864 0.010667159 0.020294774 0.055215694 0.05685516 0.032929894 -0.089596525
0.017156638 -0.0075087696 -0.05006893 -0.07983447 0.0616873 -0.009932257 0.008060941 0.036243193
0.0023724497 -0.09021782 0.014753873 0.00091383315 -0.08764985 -0.03754443 -0.03713988 -0.033114776
-0.017030617 -0.10384677 -0.041213833 -0.025418371 -9.6228905e-05 -0.03516826 -0.01932117 0.058199637
-0.010748947 0.06089916 -0.083592884 -0.017685877 0.05304657 0.051054657 -0.009335905 -0.05971718
0.04670409 -0.021029644 -0.07938182 -0.044275675 -0.07689583 0.026027784 -0.023463724 0.029236797
-0.07887799 0.038105845 -0.049128093 -0.07274267 0.071677916 0.0010106174 0.023424057 -0.037735373
0.04680503 -0.03203929 -0.06971607 -0.0931175 -0.031680677 -0.055639647 0.031369362 -0.036149856
-0.09393394 0.004754453 -0.053227007 -0.010105157 -0.05141282 -0.069541246 0.036679722 0.027769418
-0.082365654 -0.073729485 -0.015800012 0.012362829 0.040350363 -0.045019276 0.04905952 -0.003893005
-0.027229577 0.08144736 -0.07944727 0.05166217 -0.094840184 -0.061909143 -0.10822713 0.044819746
0.04168093 -0.0076942034 -0.06172605 0.0470457 -0.06398816 -0.07852897 0.010918143 -0.0050768224
-0.05475855 -0.025361262 -0.09783469 -0.00160754 -0.005990982 0.057130203 -0.10588395 -0.045726925
-0.050328717 0.07087797 -0.08744246 0.064326175 -0.023353416 -0.0027834042 0.008738696 0.083980754
00000000: 6ad9 8a39 fe9f 693c 0564 9fbd 75d5 b73d
00000010: 25f1 e1bc 87d5 85bd cf85 013d e3a1 913d
00000020: 0316 c9bc 046a cabd 7d61 34bd 15dd 813c
00000030: aa62 e1ba 24d6 a73d 0e23 7e3c 069a 893c
00000040: fea1 b2bd 00e7 cb3b 8e14 87bd c304 9abd
00000050: f428 f2bb 249c bb3c 0a5f 8abd f616 0939
00000060: de27 763d f3b1 d63d 17b4 c53d e32a d53c
00000070: 6975 54bd 67f8 41bc 73ec 843c 19e7 6a3d
00000080: 8b16 fa3c 72cb 87bc 6405 b13c 7674 e8bd
00000090: 4729 413d 8ab4 adbd 9e8e 8f3d 87fa 903b
000000a0: 4636 05bd bb77 5ebd 695c f43c 64a4 733d
000000b0: 62b5 15bd d10e 75bd 5868 453d 368e 283d
000000c0: 140f 2bbd 4e2d 3bbc b944 6ebd 14b0 26bd
000000d0: 8a99 eebc 16ad 26bd e020 cf3c 498b 6abd
000000e0: b701 823d 0b37 4a3d 69c1 b0bd 6d31 a93d
000000f0: d84e 75bd 1e64 81bd fd06 c23d 28bc 2fbd
00000100: f57a 603c 0e71 9b3d 495b a23c 67ec 423c
00000110: f41b 6c3d 7e6a 6d3d 4f8e b53b 7222 693c
00000120: 6b85 913c badf db3c acc7 89bd 445c 413d
00000130: 3f81 08bd 1119 80bd cd4a aabd d82d e8bc
00000140: ffb0 f4bc 9a40 8f3c 10d8 e8ba 1393 0b3d
00000150: 5c63 a3bd bdba 663d b069 ce3b 9879 be3d
00000160: fa24 88bd 9f32 613d 2071 afbd c432 afbd
00000170: 115d bcbd 81b5 32bd b3ae e5bb 65ed 853b
00000180: 7ea2 453c 5625 51bd 8b73 48bd c74e 6d3d
00000190: 4f4d dd3c cb8f e5bb 7f73 8cbd ade3 69bd
000001a0: cd27 6c3d be57 413c 2bea bdbd 8b97 243d
000001b0: c0d4 db3c 91f0 b6bd c99e 0b3c 9853 953d
000001c0: 1064 ae3b ea93 553d 0551 e83b c5cd 303c
000001d0: bab2 2bbc 9439 ec3c e8bd b0bd 9749 5d3d
000001e0: 0386 88ba 39a0 023d 145f 823c 9849 86bd
000001f0: f768 d5bc ed31 6cbd 2506 373d 5b75 37bd
00000200: 0b43 a23d fa35 c43a 1684 7b3d f0e1 2a3d
00000210: aafb be3b 19b4 263d 0e72 b9bd 85d3 87bd
00000220: 40c0 bb3d 74c6 703d f2eb 3abd 43f3 1d3d
00000230: bec8 ddbd 5d53 b43c 5fd4 303b d998 b83b
00000240: 026e a6bd 83c9 4cbd 4fc5 2e3c 3a41 a63c
00000250: da29 623d f5e0 683d 7fe1 063d 627e b7bd
00000260: 148c 8c3c 200c f6bb 1415 4dbd 4180 a3bd
00000270: d3ab 7c3d e8ba 22bc 0912 043c be73 143d
00000280: 1a7b 1b3b 1fc4 b8bd 3bba 713c 4e8e 6f3a
00000290: c481 b3bd 30c8 19bd fd1f 18bd 5ca3 07bd
000002a0: cb83 8bbc 9ead d4bd d6cf 28bd 303a d0bc
000002b0: 80ce c9b8 980c 10bd 6e47 9ebc be62 6e3d
000002c0: 5a1c 30bc 6671 793d bf32 abbd f9e1 90bc
000002d0: 5c47 593d b01e 513d a0f5 18bc 009a 74bd
000002e0: ca4c 3f3d 5c46 acbc f092 a2bd 695a 35bd
000002f0: 907b 9dbd 3838 d53c ff36 c0bc 0282 ef3c
00000300: c98a a1bd e014 1c3d 8a3a 49bd 1cfa 94bd
00000310: dfcb 923d b176 843a cfe3 bf3c 6890 1abd
00000320: a2b6 3f3d a13b 03bd 4dc7 8ebd 63b4 bebd
00000330: 99c3 01bd 66e6 63bd 297d 003d df11 14bd
00000340: 7060 c0bd 3ecb 9b3b 9004 5abd 1a90 25bc
00000350: 4096 52bd a46b 8ebd 7a3d 163d b17c e33c
00000360: 53af a8bd 7cff 96bd 076f 81bc 778d 4a3c
00000370: 6c46 253d 2266 38bd a3f2 483d c921 7fbb
00000380: 9010 dfbc e0cd a63d 40b5 a2bd b69b 533d
00000390: 923b c2bd 7194 7dbd 2fa6 ddbd e994 373d
000003a0: 9fb9 2a3d a81f fcbb 74d4 7cbd feb2 403d
000003b0: 390c 83bd ccd3 a0bd 03e2 323c 795b a6bb
000003c0: 804a 60bd 6cc2 cfbc 8e5d c8bd 17b4 d2ba
000003d0: 0050 c4bb 5c01 6a3d afd9 d8bd 284c 3bbd
000003e0: 7c25 4ebd 7828 913d 0815 b3bd 71bd 833d
000003f0: aa4f bfbc c669 36bb bf2c 0f3c 1afe ab3d

conv3.lin_l.bias f4 [128]
-0.032958426 -0.11332336 0.056597058 -0.046990328 -0.020116504 0.049237184 -0.004604965 0.08728131
-0.07522834 -0.01541431 0.01404016 0.01927751 -0.104083836 -0.04458397 -0.013682163 -0.007931908
-0.057845384 -0.07827069 -0.07725316 -0.0068971296 -0.031487085 -0.03755757 0.00059936097 0.03999881
-0.004201389 0.022807583 0.077681914 -0.08128759 -0.06543141 0.061656907 0.008325065 0.02671599
0.020637508 -0.024426153 -0.053031582 -0.013749566 -0.07494377 0.040164217 0.058401056 0.0072149113
-0.03448868 -0.007869854 -0.078642346 0.025182085 0.074213 0.034049 0.090855815 0.034055836
0.027879521 0.01242866 -0.0041695083 0.030010084 0.054918487 0.08398864 0.035917815 0.036227483
0.013301557 -0.022640081 -0.020587243 0.07996275 -0.013391931 -0.056718454 0.023984209 0.07634008
0.08524368 -0.0024107154 0.025531346 -0.027547127 -0.07791913 0.053015027 0.04264424 0.011545767
0.050626516 -0.06317822 0.014768483 0.025456876 -0.039429624 -0.060087822 -0.056284133 0.09432491
-0.036967605 0.035100468 -0.05361193 -0.07811171 -0.08804345 0.030339357 -0.003142577 -0.016551282
0.048951976 -0.0052698194 -0.09824928 -0.07486221 -0.043833945 0.03256761 0.03534302 0.029853163
0.042657096 0.06365193 -0.08535025 0.06880807 -0.064144105 0.007379058 0.039616432 -0.05381571
-0.05082391 -0.02643965 -0.038400795 0.090155005 0.054754585 -0.07619243 -0.08361809 0.05184362
-0.0382625 0.01617797 -0.055662803 0.0640401 -0.037425987 0.058119148 -0.011236366 -0.02166649
-0.067981035 0.07820162 0.035557784 0.066781186 0.047109332 -0.08512934 0.06211209 0.09456246
00000000: 6aff 06bd 1416 e8bd 51d2 673d ee78 40bd
00000010: 5ecb a4bc eeac 493d 3fe5 96bb 8bc0 b23d
00000020: 5111 9abd 4d8c 7cbc b308 663c deeb 9d3c
00000030: e829 d5bd ae9d 36bd 272b 60bc d5f4 01bc
00000040: 48ef 6cbd 624c a0bd e836 9ebd 5101 e2bb
00000050: 9af8 00bd f7d5 19bd 6f1e 1d3a cbd5 233d
00000060: ceab 89bb f8d6 ba3c b217 9f3d 1c7a a6bd
00000070: e700 86bd f48b 7c3d da65 083c 7edb da3c
00000080: fe0f a93c 5b19 c8bc a537 59bd dc45 61bc
00000090: 1f7c 99bd 3c83 243d f235 6f3d 106b ec3b
000000a0: 0144 0dbd 8ff0 00bc 3d0f a1bd a94a ce3c
000000b0: fcfc 973d f776 0b3d 9d12 ba3d 227e 0b3d
000000c0: 9863 e43c 94a1 4b3c 5fa0 88bb b5d7 f53c
000000d0: 35f2 603d 3c02 ac3d 8f1e 133d 4563 143d
000000e0: c6ee 593c b177 b9bc 94a6 a8bc 83c3 a33d
000000f0: d469 5bbc 9c51 68bd 887a c43c 3058 9c3d
00000100: 3d94 ae3d 18fd 1dbb 1d27 d13c 83aa e1bc
00000110: 1194 9fbd 4926 593d baab 2e3d 752a 3d3c
00000120: c05d 4f3d 9563 81bd 82f7 713c f08a d03c
00000130: f580 21bd a61e 76bd 318a 66bd 6b2d c13d
00000140: 586b 17bd 82c5 0f3d 2f98 5bbd 08f9 9fbd
00000150: 2050 b4bd 3e8a f83c b1f3 4dbb 8e96 87bc
00000160: de81 483d 73ae acbb eb36 c9bd 5c51 99bd
00000170: 398b 33bd 9d65 053d d8c3 103d 9f8e f43c
00000180: 35b9 2e3d f15b 823d 1dcc aebd 3feb 8c3d
00000190: fc5d 83bd 06cc f13b d744 223d dd6d 5cbd
000001a0: bb2c 50bd f797 d8bc 274a 1dbd 30a3 b83d
000001b0: 5846 603d c70a 9cbd f63f abbd fa59 543d
000001c0: 24b9 1cbd aa87 843c aefe 63bd 7527 833d
000001d0: fe4b 19bd 580e 6e3d bc18 38bc ec7d b1bc
000001e0: a439 8bbd 2c28 a03d 0aa5 113d 93c4 883d
000001f0: b7f5 403d 4b58 aebd 3f69 7e3d f7a9 c13d

conv3.lin_r.weight f4 [128, 128]
0.00921141 0.040668976 -0.052875414 0.023164576 0.06283878 0.02776053 0.035026286 0.048950706
-0.053396333 -0.040099014 0.12075695 0.05524776 0.080275245 -0.03231093 0.03716011 -0.023171797
-0.045586035 -0.102323234 -0.04121884 -0.060756724 -0.012400139 0.059797477 0.11697505 0.029185232
0.059783585 0.0005242975 0.071283676 0.017707808 0.028662508 -0.0070677726 -0.019859593 0.14824136
-0.058498237 0.08661954 0.02820905 0.015488762 0.03203596 -0.020693988 -0.042132366 -0.027721599
-0.088330634 0.10576217 -0.03186652 0.07135997 -0.07755048 -0.07125813 -0.04877346 -0.07474711
0.10026906 0.023532992 -0.061079398 0.090257265 0.07425058 0.041275937 0.018871125 0.029332379
-0.027377434 -0.02019575 -0.037366662 0.04106544 -0.049888276 -0.088076495 -0.022566509 0.026750024
0.08530209 0.00065252546 0.0028234478 0.06964287 -0.00887264 -0.06243421 0.023747003 -0.0474028
0.0410737 0.060022224 -0.0493779 -0.030036876 0.051444523 0.026849736 0.09748411 0.014706323
-0.0135179525 -0.019304931 0.08340566 0.00463821 0.06158658 -0.06477929 -0.035711706 -0.076744266
-0.067105405 0.057563946 -0.06546718 0.014299598 0.05027971 0.0629976 -0.020227203 -0.04800686
0.041784726 -0.09224119 0.08126236 0.053209998 0.031589486 -0.0034652117 0.040513963 -0.059250727
0.05469774 0.019468877 -0.033242363 -0.05200875 -0.015326488 0.024820436 -0.007775718 -0.06690849
0.07004161 0.11122425 0.033225093 0.06645092 0.03697526 0.083289154 -0.06587016 0.06869376
-0.028998319 -0.010441317 0.048197318 -0.0131039405 0.007926627 -0.06167373 0.011209193 -0.054293633
-0.02273144 0.09196508 -0.06719082 0.050394543 0.013252567 -0.007144768 -0.07131358 -0.06200508
-0.06187844 0.026432289 0.10692004 -0.06681981 0.0030907986 0.02401634 0.01608451 -0.06846796
-0.08458729 -0.055904727 0.11150243 0.06847427 -0.070329815 0.0063343565 0.03385438 0.059216235
-0.014958314 -0.05251097 0.0061557423 0.0072062607 0.09200338 -0.09258349 0.04188533 0.10485545
0.048757426 0.02433308 -0.019610967 0.009933454 0.041132152 0.08228181 0.0665214 0.04914903
0.023815768 0.06355408 -0.019995002 0.08100585 0.03669179 0.076031536 -0.007264372 -0.011960345
0.007882349 -0.07756759 -0.043869223 0.06924579 -0.04176942 -0.031483967 0.092135906 -0.0733336
0.02362535 -0.02225861 -0.02147029 0.056738373 -0.0641912 -0.083208136 -0.07518348 0.04689655
-0.054035973 0.01105221 0.07929234 0.028587034 0.017673256 -0.06778834 -0.04322157 0.040283658
0.07193202 0.010985523 0.04179367 0.036141083 0.04054594 0.013628222 -0.039341602 0.13619474
0.050361928 -0.016512025 -0.02889088 -0.0033182933 -0.008006875 -0.015003739 -0.07049817 0.06511061
0.05215177 0.00886309 0.07271673 0.012877178 0.017808575 -0.004862653 -0.095499545 -0.08749383
0.08006046 0.03715102 -0.01182231 0.028158689 -0.011642099 -0.0628516 -0.0707774 -0.018668218
-0.07763439 0.0058615357 0.034688395 -0.09519271 0.06076583 0.07394088 0.026069844 0.07212409
0.0050810734 -0.08986082 0.06995002 0.023756826 -0.042775724 -0.023620943 -0.052231595 0.066029906
-0.0073352843 -0.077500075 0.13634492 0.006257994 0.0010458871 -0.0962954 0.058449347 -0.051350012
00000000: 74eb 163c 8394 263d e493 58bd a3c3 bd3c
00000010: 9eb1 803d 0d6a e33c b977 0f3d 8980 483d
00000020: 1db6 5abd dd3e 24bd 6b4f f73d 7a4b 623d
00000030: 5967 a43d 7758 04bd 3335 183d c8d2 bdbc
00000040: 6cb8 3abd d88e d1bd 16d5 28bd 0bdc 78bd
00000050: f429 4bbc 33ee 743d 9d90 ef3d de15 ef3c
00000060: a2df 743d 0271 093a 2dfd 913d f70f 913c
00000070: a3cd ea3c c698 e7bb 96b0 a2bc 95cc 173e
00000080: d99b 6fbd 9665 b13d aa16 e73c 94c4 7d3c
00000090: 2438 033d 7086 a9bc fd92 2cbd 6818 e3bc
000000a0: b1e6 b4bd d699 d83d 7886 02bd 2d25 923d
000000b0: c9d2 9ebd c8ef 91bd aec6 47bd 0315 99bd
000000c0: dd59 cd3d 43c8 c03c 642e 7abd cdd8 b83d
000000d0: b010 983d f510 293d 9e97 9a3c 754a f03c
000000e0: a446 e0bc 8f71 a5bc c90d 19bd 3c34 283d
000000f0: a657 4cbd 7361 b4bd 66dd b8bc de22 db3c
00000100: ddb2 ae3d 3e0e 2b3a 9809 393b eca0 8e3d
00000110: 8d5e 11bc 04bb 7fbd 1389 c23c 7029 42bd
00000120: e53c 283d ddd9 753d 7b40 4abd e50f f6bc
00000130: 7eb7 523d faf3 db3c c0a5 c73d caf2 703c
00000140: 677a 5dbc 6025 9ebc 96d0 aa3d 20fc 973b
00000150: 3642 7c3d 01ab 84bd 7046 12bd 192c 9dbd
00000160: 8f6e 89bd 2cc8 6b3d a813 86bd dc48 6a3c
00000170: 19f2 4d3d e304 813d 85b3 a5bc d7a2 44bd
00000180: 7626 2b3d f3e8 bcbd e16c a63d baf2 593d
00000190: fa63 013d 9b18 63bb f8f1 253d e4b0 72bd
000001a0: bd0a 603d 327d 9f3c 2529 08bd 2107 55bd
000001b0: f31b 7bbc 3a54 cb3c 73cb febb 5207 89bd
000001c0: fa71 8f3d 8ac9 e33d 0917 083d 6c17 883d
000001d0: 5f73 173d 8193 aa3d efe6 86bd 50af 8c3d
000001e0: e28d edbc 0f12 2bbc 8d6a 453d e9b1 56bc
000001f0: afde 013c 989d 7cbd c3a6 373c 0063 5ebd
00000200: 4937 babc 3058 bc3d 579b 89bd 826a 4e3d
00000210: 4b21 593c a81e eabb db0c 92bd 0af9 7dbd
00000220: 3f74 7dbd 8788 d83c e5f8 da3d d3d8 88bd
00000230: ff8e 4a3b eabd c43c aac3 833c ee38 8cbd
00000240: 1a3c adbd 5bfc 64bd 635b e43d 3d3c 8c3d
00000250: 1409 90bd 6f90 cf3b e4aa 0a3d b98c 723d
00000260: b713 75bc be15 57bd 1cb6 c93b 7f22 ec3b
00000270: 456c bc3d 6a9c bdbd f48f 2b3d 74be d63d
00000280: deb5 473d 2b56 c73c 2ea7 a0bc edbf 223c
00000290: 307a 283d 5e83 a83d 5f3c 883d 7e50 493d
000002a0: 4919 c33c a428 823d 8fcc a3bc 65e6 a53d
000002b0: 214a 163d 6cb6 9b3d f809 eebb 53f5 43bc
000002c0: f824 013c c2db 9ebd 37b0 33bd bdd0 8d3d
000002d0: 6916 2bbd 55f5 00bd c0b1 bc3d ed2f 96bd
000002e0: f389 c13c b057 b6bc 76e2 afbc 7f66 683d
000002f0: ad76 83bd 0769 aabd ccf9 99bd 9916 403d
00000300: d354 5dbd 5414 353c 0664 a23d 5b2f ea3c
00000310: 81c7 903c 9dd4 8abd 1a09 31bd 7a00 253d
00000320: 1851 933d a0fc 333c d72f 2b3d ac08 143d
00000330: 8013 263d e848 5f3c a924 21bd a276 0b3e
00000340: 4f48 4e3d 3a44 87bc 91ac ecbc b977 59bb
00000350: 452f 03bc 3ed2 75bc 5861 90bd b658 853d
00000360: 189d 553d 7e36 113c 82ec 943d cdfa 523c
00000370: 4ae3 913c e456 9fbb 4495 c3bd f72f b3bd
00000380: bdf6 a33d ab2b 183d 5db2 41bc 0dad e63c
00000390: 81be 3ebc 57b8 80bd bef3 90bd 17ee 98bc
000003a0: c7fe 9ebd 2012 c03b 6b15 0e3d 65f4 c2bd
000003b0: 97e5 783d 516e 973d 6d90 d53c cbb5 933d
000003c0: 227f a63b f308 b8bd f541 8f3d ad9d c23c
000003d0: 9935 2fbd b580 c1bc ccf0 55bd b03a 873d
000003e0: d35c f0bb 5cb8 9ebd 019e 0b3e dc0f cd3b
000003f0: 2616 893a 8636 c5bd 9568 6f3d 6454 52bd

bn1.weight f4 [128]
0.86809105 1.0520196 0.8479905 0.98270136 0.8737481 0.826516 0.9693033 0.8591592
0.8890427 0.9197166 0.8899135 1.1314923 0.86333114 0.89632004 0.89800304 1.0881613
0.84679615 1.0144796 0.9634437 0.9475891 0.9240821 0.8304331 0.96571267 0.8704347
1.0098693 0.8741297 0.7565678 0.8392271 0.82533187 0.9919894 0.8642054 0.91118854
0.9063121 0.920088 1.0856051 1.1727662 0.7971784 0.86811 0.91013813 0.8955805
0.88088584 0.90747213 0.83688444 0.90232277 0.923214 1.0749238 1.0745679 1.130992
0.9138931 0.9167532 0.8637699 0.9050079 0.9080947 1.1479802 1.1146722 0.78769445
1.1421422 1.0637219 0.96696454 0.91873515 0.9242133 1.2096267 0.90760654 0.9403173
1.1470417 0.8192267 0.8659796 0.89417636 1.0811198 1.1070025 0.76686656 1.1869187
1.0134859 0.9406339 1.1692528 0.89081174 0.9644371 1.1793339 0.9369639 1.180737
0.8241411 1.0769295 0.9024393 0.8857535 0.8839461 1.0087639 0.8957563 1.0795195
0.7442785 0.81047964 0.88314545 0.9097577 0.9264504 0.88873905 0.8713626 0.8726797
0.8658979 0.89667386 0.88718253 1.0068802 1.0381392 0.9220503 0.969128 0.94582963
1.0523008 0.95210725 0.89079416 0.88703585 0.89734346 0.81382674 0.9315615 0.9112723
0.80541134 0.8533071 1.0553143 1.1034235 0.82315135 0.8647072 0.9007944 0.8612144
0.90693456 1.0231348 1.1060998 1.0203094 0.8494378 1.1119266 0.9358718 0.9931794
00000000: 373b 5e3f 94a8 863f e815 593f 5192 7b3f
00000010: f5ad 5f3f 8d96 533f 4324 783f dbf1 5b3f
00000020: 4d98 633f 8c72 6b3f 5fd1 633f bdd4 903f
00000030: 4503 5d3f 3b75 653f 87e3 653f df48 8b3f
00000040: a2c7 583f 78da 813f 3fa4 763f 3395 723f
00000050: a590 6c3f 4397 543f f238 773f cfd4 5e3f
00000060: 6643 813f f7c6 5f3f 6dae 413f 96d7 563f
00000070: f348 533f 04f3 7d3f 913c 5d3f a743 693f
00000080: 1204 683f e38a 6b3f 1cf5 8a3f 341d 963f
00000090: e213 4c3f 753c 5e3f d0fe 683f c344 653f
000000a0: bc81 613f 1850 683f 0f3e 563f a0fe 663f
000000b0: c157 6c3f 1a97 893f 718b 893f 59c4 903f
000000c0: e6f4 693f 56b0 6a3f 0620 5d3f 99ae 673f
000000d0: e578 683f 04f1 923f 94ad 8e3f 58a6 493f
000000e0: b731 923f 0a28 883f fd8a 773f 3a32 6b3f
000000f0: 3e99 6c3f 0cd5 9a3f e758 683f a2b8 703f
00000100: 43d2 923f d7b8 513f d7b0 5d3f bee8 643f
00000110: 2262 8a3f 42b2 8d3f 5e51 443f f4ec 973f
00000120: e8b9 813f 62cd 703f 13aa 953f 3d0c 643f
00000130: 5ae5 763f 6af4 963f dedc 6f3f 6422 973f
00000140: e9fa 523f d3d8 893f 4306 673f bec0 623f
00000150: 4b4a 623f 2d1f 813f 4950 653f b22d 8a3f
00000160: 0989 3e3f 987b 4f3f d215 623f e1e5 683f
00000170: da2b 6d3f 6784 633f 9f11 5f3f f067 5f3f
00000180: 7cab 5d3f 6b8c 653f 651e 633f 73e1 803f
00000190: bfe1 843f 7d0b 6c3f c618 783f e421 723f
000001a0: cbb1 863f 4dbd 733f 160b 643f c814 633f
000001b0: 4db8 653f f356 503f d17a 6e3f 2449 693f
000001c0: 702f 4e3f 5672 5a3f 8a14 873f fb3c 8d3f
000001d0: 0cba 523f 735d 5d3f 769a 663f 8c78 5c3f
000001e0: dd2c 683f 15f6 823f ae94 8d3f 8099 823f
000001f0: c174 593f 9c53 8e3f 4b95 6f3f 0141 7e3f
