models/best_graphsage_model.pth (torch, 428261 bytes, 20 tensors)

conv1.lin_l.weight f4 [128, 21]
-0.08952113 0.04585686 -0.34094822 0.12158634 -0.18772684 -0.116472796 0.010224756 0.19356391
0.14615126 -0.21735881 -0.17397858 -0.15873358 -0.13757741 -0.08898763 -0.18990333 0.07702577
-0.008959012 0.1864152 0.034623504 0.15180519 -0.12379304 0.0031684095 0.0033680622 -0.12448648
-0.11007168 0.10280304 -0.18322203 -0.10965182 0.14586067 -0.20840672 -0.05867396 0.10746793
0.10197518 -0.10290849 -0.18453628 -0.21183927 0.00088582886 -0.099079944 0.072671615 0.03608042
0.05327299 0.21575697 0.12371186 0.0037763703 0.105157696 -0.13571791 -0.12708361 -0.072015785
0.05576457 -0.1351976 0.036472652 -0.21809684 0.10992577 -0.08052018 0.02995349 -0.10302074
-0.13183075 0.13235524 0.20891742 -0.08045424 0.10975132 -0.052519113 -0.020494489 -0.08869555
0.00745133 0.13387607 -0.02257752 -0.19290996 -0.16175327 0.14909986 0.182745 -0.18971692
-0.1309299 -0.03108006 -0.10339729 0.16761148 0.077063724 -0.03846995 0.13841745 -0.07505824
-0.20827998 -0.1244124 0.1257 0.011261944 -0.10399825 -0.04062078 0.16643766 0.28237233
-0.08390884 -0.21371563 -0.19875367 0.17734997 0.1761342 -0.048733536 -0.133879 -0.14817455
-0.21608786 0.15446292 -0.20850588 0.09763697 -0.058100097 -0.09387892 -0.10817732 -0.121672966
0.043057162 -0.13232203 0.01045897 -0.16062854 -0.09549783 0.16050193 -0.058370613 -0.038257446
-0.13515839 0.034496088 -0.120312996 0.11790367 -0.15973762 0.005535307 0.023248965 -0.052619554
0.1877706 -0.18351026 0.07859585 -0.1930926 -0.080679126 0.19992262 -0.07751246 0.08773952
-0.099025734 -0.18388186 0.10206378 0.16516171 -0.15947416 0.052945063 0.21569163 0.080367066
0.20806499 0.20272644 0.13567878 -0.056187786 0.16967966 -0.0076249307 0.21408762 -0.010334767
0.14259419 -0.0278538 -0.03769628 -0.06987375 0.007795696 0.012097629 -0.034827117 0.1683462
-0.19422668 0.06634597 0.11710011 -0.13141115 -0.10285553 -0.15719546 0.10768893 -0.1916517
-0.12423567 -0.09567476 0.047189135 0.15617235 -0.116742946 0.067239195 0.15497495 0.21334946
-0.07101965 -0.1835476 0.12333011 0.110012114 -0.1428466 -0.18462017 0.18159363 -0.01675727
-0.17585835 0.0005975523 0.039961364 0.062253196 0.15155187 -0.045801364 0.16427928 0.20858179
0.0513979 0.030158944 -0.18488619 0.19038679 -0.15385728 0.25183108 0.049339943 0.05176469
0.11473885 0.09817636 0.14980157 -0.21051905 -0.20141244 0.21652582 0.20743874 0.027876822
0.20029324 -0.052224223 -0.039437268 0.18872204 -0.10001024 0.09077084 -0.18838497 0.12763408
0.03932624 0.0020009936 -0.136052 0.06073058 -0.07165871 0.029325856 0.12005489 0.039423842
0.18685085 -0.05381636 -0.20932245 -0.04178918 0.21643229 0.08494148 -0.037209567 -0.01934742
-0.025793549 0.20570362 -0.09819455 0.041455116 0.16843905 0.04371601 0.21614954 0.012452809
0.10811688 -0.015553972 0.17281882 -0.06122303 0.16982643 -0.13016391 0.1711565 0.08338703
-0.13338618 0.21640962 0.025448168 0.14831918 -0.14572391 -0.07210559 -0.057051074 -0.18500255
0.039398715 -0.116556086 -0.1698117 -0.1561765 0.09801965 0.0020611754 -0.10529648 -0.34570587
00000000: db56 b7bd 67d4 3b3d c490 aebe 4202 f93d
00000010: 773b 40be 4a89 eebd bc85 273c 9e35 463e
00000020: ada8 153e 4f93 5ebe 7127 32be 0e8b 22be
00000030: 18e1 0cbe 263f b6bd 0576 42be b0bf 9d3d
00000040: d2c8 12bc a0e3 3e3e 60d1 0d3d d272 1b3e
00000050: 3587 fdbd 17a5 4f3b b5ba 5c3b c5f2 febd
00000060: 436d e1bd 668a d23d 8e9e 3bbe 2291 e0bd
00000070: 805c 153e 9268 55be 1b54 70bd 2518 dc3d
00000080: 5dd8 d03d b0c1 d2bd 14f7 3cbe 65ec 58be
00000090: f836 683a 6dea cabd dbd4 943d 10c9 133d
000000a0: c734 5a3d 65ef 5c3e a55c fd3d fb7c 773b
000000b0: eb5c d73d a3f9 0abe 3522 02be 037d 93bd
000000c0: 6469 643d 3d71 0abe 5964 153d c754 5fbe
000000d0: c320 e13d c4e7 a4bd 0561 f53c 8afc d2bd
000000e0: a4fe 06be 2288 073e 73ee 553e 31c5 a4bd
000000f0: 4dc5 e03d 481e 57bd 0fe4 a7bc 03a6 b5bd
00000100: 492a f43b cf16 093e 7ef4 b8bc 308a 45be
00000110: a6a2 25be a2ad 183e 8121 3b3e 2745 42be
00000120: 7d12 06be 9c9b febc f5c1 d3bd 58a2 2b3e
00000130: 96d3 9d3d ab92 1dbd 4ebd 0d3e 22b8 99bd
00000140: 5947 55be eecb febd 80b7 003e 0484 383c
00000150: 09fd d4bd fa61 26bd a26e 2a3e 1b93 903e
00000160: 66d8 abbd 45d8 5abe 1586 4bbe 3b9b 353e
00000170: 865c 343e d19c 47bd 9417 09be 12bb 17be
00000180: 2346 5dbe 872b 1e3e 9182 55be e4f5 c73d
00000190: 5efa 6dbd 9743 c0bd 128c ddbd ad2f f9bd
000001a0: b55c 303d 6d7f 07be 1a5c 2b3c cf7b 24be
000001b0: 5e94 c3bd 9e5a 243e 0616 6fbd d7b3 1cbd
000001c0: f666 0abe c54b 0d3d a966 f6bd 7b77 f13d
000001d0: 4292 23be 8561 b53b 9d74 be3c 9a87 57bd
000001e0: f046 403e 1dea 3bbe dcf6 a03d 11ba 45be
000001f0: 193b a5bd 84b8 4c3e dabe 9ebd c7b0 b33d
00000200: 01ce cabd 874b 3cbe d106 d13d 2720 293e
00000210: 324d 23be ecdc 583d 44de 5c3e 7d97 a43d
00000220: fd0e 553e 8597 4f3e 61ef 0a3e 2a25 66bd
00000230: 81c0 2d3e 8eda f9bb c939 5b3e 2853 29bc
00000240: 3604 123e a72d e4bc 6a67 1abd f819 8fbd
00000250: 0a73 ff3b 2235 463c e1a6 0ebd f262 2c3e
00000260: 5ce3 46be 65e0 873d 2fd2 ef3d a590 06be
00000270: eca5 d2bd d9f7 20be 048c dc3d 5840 44be
00000280: 456f febd 21f1 c3bd 6549 413d a5eb 1f3e
00000290: ed16 efbd b4b4 893d c1b1 1e3e 4878 5a3e
000002a0: c072 91bd e7f3 3bbe 7f94 fc3d 084e e13d
000002b0: 6146 12be 120d 3dbe aef3 393e 8b46 89bc
000002c0: 3614 34be 0ea5 1c3a 87ae 233d 35fd 7e3d
000002d0: 6a30 1b3e 369a 3bbd d438 283e 7796 553e
000002e0: 9b86 523d e40f f73c ce52 3dbe c1f4 423e
000002f0: c38c 1dbe 01f0 803e ae18 4a3d 3607 543d
00000300: 34fc ea3d b010 c93d 9565 193e 4e92 57be
00000310: 103f 4ebe f2b8 5d3e d26a 543e ef5d e43c
00000320: ac19 4d3e 11e9 55bd f988 21bd 5a40 413e
00000330: 2bd2 ccbd 10e6 b93d fde7 40be 82b2 023e
00000340: 8d14 213d 1a23 033b 3751 0bbe a1c0 783d
00000350: cdc1 92bd c73c f03c 57df f53d e57a 213d
00000360: d455 3f3e 8b6e 5cbd a058 56be 222b 2bbd
00000370: 6da0 5d3e ccf5 ad3d 0f69 18bd 7b7e 9ebc
00000380: fe4c d3bc f8a3 523e 391a c9bd d7cc 293d
00000390: 497b 2c3e 8f0f 333d 4e56 5d3e de06 4c3c
000003a0: 626c dd3d 16d6 7ebc 6bf7 303e 00c5 7abd
000003b0: fbe6 2d3e b049 05be a643 2f3e d2c6 aa3d
000003c0: 6396 08be 7c9a 5d3e ad78 d03c fce0 173e
000003d0: a638 15be 18ac 93bd 63ae 69bd 4f71 3dbe
000003e0: 8c60 213d f5b4 eebd 1ee3 2dbe bbec 1fbe
000003f0: 87be c83d c914 073b aea5 d7bd 5c00 b1be

conv1.lin_l.bias f4 [128]
0.15939683 0.05600945 -0.11523681 -0.071103014 -0.13097173 0.09975382 -0.19241603 0.09785168
0.1351252 -0.12892926 -0.20205416 -0.21213186 0.03459136 0.07687489 0.023806525 -0.1678718
-0.052544367 0.20039499 -0.036837943 0.12011367 0.21308571 -0.062174436 0.05796585 0.17922194
0.005765202 -0.057673104 -0.08937428 -0.1471478 0.1399621 -0.108326316 0.16500145 -0.031950492
-0.13633305 -0.093238726 -0.17186704 -0.14890715 0.07036007 -0.16404723 0.13878396 -0.13478073
0.20877434 -0.13988318 -0.007627389 0.11708415 0.00029238014 -0.137072 -0.081173114 -0.09472021
-0.10998376 0.19143021 -0.04546787 -0.11510938 -0.20688988 0.13276061 -0.08904446 -0.20187874
0.2098826 -0.18773577 0.11426598 -0.15494972 -0.18954802 0.13186014 0.1898631 0.08437124
0.19790716 -0.092588544 -0.07920041 -0.013432336 0.19769517 0.10829788 -0.008522862 -0.18153319
0.07013994 0.026193764 -0.10823624 0.14768803 0.19509022 -0.09703694 0.042797934 -0.04478
0.1425155 -0.019008726 0.10080509 0.13061969 -0.030744199 0.032837976 -0.020897102 0.082913734
0.022819651 -0.18992823 0.028211197 -0.16824374 0.012528285 -0.11898931 -0.15553366 0.15990055
-0.15562539 -0.08838037 0.060245723 -0.16591616 0.05477241 0.1367109 -0.021383895 -0.12462191
0.21448632 0.18511564 0.16940664 -0.18523659 0.06403779 0.079431675 0.006528501 0.08060951
-0.050069727 -0.03382203 0.08481152 -0.06593795 -0.08731939 0.064116426 -0.07925037 -0.0050956015
0.19916843 -0.12695965 0.109622814 0.17541844 -0.006469391 -0.13819563 -0.06145633 0.055733398
00000000: ec38 233e 2a6a 653d 4701 ecbd 759e 91bd
00000010: 741d 06be bb4b cc3d b508 45be 7666 c83d
00000020: 435e 0a3e 0806 04be 49e7 4ebe 1839 59be
00000030: abaf 0d3d 9570 9d3d e705 c33c 96e6 2bbe
00000040: c338 57bd 5834 4d3e 62e3 16bd 28fe f53d
00000050: 2433 5a3e 9faa 7ebd 996d 6d3d f585 373e
00000060: 05ea bc3b a23a 6cbd dd09 b7bd eaad 16be
00000070: 3a52 0f3e 30da ddbd 24f6 283e 85de 02bd
00000080: e49a 0bbe f2f3 bebd eafd 2fbe 1e7b 18be
00000090: f118 903d fffb 27be 621d 0e3e f603 0abe
000000a0: f1c8 553e 893d 0fbe 2def f9bb d1c9 ef3d
000000b0: 994a 9939 9a5c 0cbe 173e a6bd abfc c1bd
000000c0: 2a3f e1bd 4806 443e 843c 3abd 77be ebbd
000000d0: f1da 53be 66f2 073e f15c b6bd 4db9 4ebe
000000e0: 77eb 563e ce3d 40be 4804 ea3d 24ab 1ebe
000000f0: e018 42be 5806 073e 796b 423e d4ca ac3d
00000100: 2da8 4a3e 109f bdbd d333 a2bd 4d13 5cbc
00000110: 9a70 4a3e 47cb dd3d 79a3 0bbc d6e3 39be
00000120: 87a5 8f3d 4e94 d63c f6aa ddbd 883b 173e
00000130: bbc5 473e 4ebb c6bd e34c 2f3d 3c6b 37bd
00000140: 95ef 113e 30b8 9bbc e672 ce3d 2bc1 053e
00000150: 42db fbbc 1d81 063d 6630 abbc adce a93d
00000160: 47f0 ba3c 8c7c 42be 2b1b e73c 1648 2cbe
00000170: 7043 4d3c abb0 f3bd 3744 1fbe f8bc 233e
00000180: 435c 1fbe c400 b5bd 38c4 763d ede5 29be
00000190: 0959 603d f1fd 0b3e 472d afbc c639 ffbd
000001a0: 4da2 5b3e f48e 3d3e ef78 2d3e a9ae 3dbe
000001b0: 3f26 833d 13ad a23d 09ed d53b 9916 a53d
000001c0: ea15 4dbd f888 0abd aab1 ad3d 7a0a 87bd
000001d0: 82d4 b2bd 794f 833d 054e a2bd 01f9 a6bb
000001e0: cff2 4b3e b601 02be ed81 e03d e4a0 333e
000001f0: 2ffd d3bb 2883 0dbe a2b9 7bbd b448 643d

conv1.lin_r.weight f4 [128, 21]
-0.17270054 -0.038543385 0.09701884 0.16920519 -0.004193059 0.070958406 -0.14594543 0.08353858
-0.024239086 0.06223286 -0.049500156 -0.040375985 -0.08086562 -0.1895365 -0.14128792 -0.046430726
0.13271464 -0.038018744 -0.14200017 -0.25964937 -0.3426896 0.016786095 0.00070699427 0.042105347
0.31145766 -0.2144478 0.07841013 0.04934896 0.10342445 0.03409341 -0.05766468 -0.007927318
0.008003185 0.009747883 0.0020700025 0.0085006645 0.033528876 0.057839908 -0.034799963 0.03372335
-0.0059734113 0.38803574 -0.021201095 0.010696333 0.018748153 -0.31502247 -0.0017104989 0.019566873
-0.00065140857 -0.044577453 0.026802346 0.021337705 0.037720237 0.011424279 -0.002043641 0.020118045
-0.022227678 0.009979864 -0.0077094315 -0.016523238 -0.052331384 -0.042420875 0.39235854 0.12109819
-0.00901042 -0.13376278 0.21328706 -0.023912055 0.03818965 0.0720201 0.09439567 -0.061342634
-0.04003231 -0.09910727 -0.18943441 0.062436633 0.100509495 -0.006464354 0.043382347 -0.0658148
0.02244107 0.05438842 -0.28107116 -0.21456377 0.11109747 0.00065886276 -0.1838302 -0.41695064
0.018136159 0.10213793 -0.044968378 0.16378783 0.09034604 -0.048414577 0.014742932 0.19734873
0.024872595 0.16281293 -0.0418068 -0.0038971454 -0.024407422 -0.047948893 0.026753182 -0.019856635
0.5035681 0.012981588 0.00015562134 -0.03354871 -0.33723357 0.015497192 0.0053475043 0.008815529
0.038070597 0.024955494 0.019883798 -0.00785091 0.005110342 0.006854713 0.019763242 -0.00047640756
0.010685728 -0.009433227 -0.008364997 -4.3290347e-05 0.06804371 -0.18569644 0.085701056 0.054470982
0.21210185 -0.28197137 -0.2071999 -0.08726701 0.1429453 0.09992757 0.10819854 -0.035396084
0.045197655 0.095147535 -0.05005846 0.17537631 0.19730778 -0.0033512658 0.06567749 -0.1107606
0.103440344 0.19770357 -0.029615834 0.15001115 -0.0001651 -0.21837509 0.06322563 -0.007387271
-0.053887445 0.022364419 -0.049822096 -0.010243446 0.075935274 0.052743588 -0.018417632 0.022055004
0.017951114 0.030327247 0.019778198 -0.0047219 0.0138406465 -0.031674366 -0.16880612 -0.34642112
0.13316628 -0.07329938 0.29903793 0.099872924 -0.004333021 -0.04860415 -0.19649908 0.09441292
0.1285845 0.22911242 0.27887988 -0.388534 0.26460156 -0.2740342 -0.15767013 0.07283445
-0.28104496 -0.17237978 -0.11993624 -0.043235075 -0.12293152 0.058116224 0.06783172 0.024079029
0.11165602 0.15086694 -0.1615875 -0.09576786 -0.050482094 -0.012170246 0.044008482 0.14284332
0.01018959 -0.10549477 0.10371418 -0.2645454 0.08896198 -0.048648592 0.26510635 0.120977476
0.20082995 0.79270667 -0.31108633 0.02247621 0.017053764 -0.3354281 -0.0053159148 0.029017348
0.14024815 0.08002521 -0.081868656 0.14941347 0.053776704 -0.093124695 0.06912212 -0.15801942
-0.091567405 -0.024538076 -0.080891 -0.11115962 -0.036276203 -0.2829936 -0.012338109 -0.17386799
0.095853716 0.15339741 0.35244414 0.18712786 0.1720845 0.1334372 -0.05384522 -0.005313752
0.108658284 -0.010501207 -0.018538376 -0.0037837357 0.06547657 -0.10595662 -0.06888833 0.059851043
0.024071524 0.37834382 -0.03451952 0.12337239 -0.09119137 -0.005286884 -0.0026600314 0.0070214695
00000000: 69d8 30be abdf 1dbd d0b1 c63d 2044 2d3e
00000010: ee65 89bb a452 913d b872 15be 4616 ab3d
00000020: 0c91 c6bc e2e7 7e3d adc0 4abd 4a61 25bd
00000030: e09c a5bd db15 42be c8ad 10be 252e 3ebd
00000040: 59e6 073e 8bb9 1bbd 7e68 11be c3f0 84be
00000050: 0375 afbe fe82 893c 9555 393a a876 2c3d
00000060: 6177 9f3e 3498 5bbe 7e95 a03d 2322 4a3d
00000070: 33d0 d33d 88a5 0b3d cd31 6cbd 95e1 01bc
00000080: ca1f 033c 96b5 1f3c e1a8 073b 5f46 0b3c
00000090: 9355 093d 8ae9 6c3d 688a 0ebd 7f21 0a3d
000000a0: 9bbc c3bb 9fac c63e ebad adbc ac3f 2f3c
000000b0: ba95 993c a04a a1be d232 e0ba b54a a03c
000000c0: 4ac3 2aba d996 36bd 9890 db3c 69cc ae3c
000000d0: 8980 1a3d e62c 3b3c 9bee 05bb 99ce a43c
000000e0: d216 b6bc 9582 233c 669f fcbb be5b 87bc
000000f0: 6f59 56bd 83c1 2dbd 38e3 c83e 5402 f83d
00000100: 71a0 13bc 1cf9 08be ec67 5a3e 37e3 c3bc
00000110: c06c 1c3d 467f 933d 8452 c13d 6a42 7bbd
00000120: ebf8 23bd c1f8 cabd 18fb 41be 8ebd 7f3d
00000130: ecd7 cd3d efd2 d3bb b0b1 313d e9c9 86bd
00000140: 56d6 b73c 64c6 5e3d 8fe8 8fbe 9bb6 5bbe
00000150: 1287 e33d 88b7 2c3a fc3d 3cbe 8e7a d5be
00000160: 4892 943c b12d d13d c330 38bd ffb7 273e
00000170: 5807 b93d 5d4e 46bd 578c 713c c915 4a3e
00000180: 9dc1 cb3c 6fb8 263e 9b3d 2bbd 4067 7fbb
00000190: 13f2 c7bc 0f66 44bd 7d29 db3c 62aa a2bc
000001a0: d7e9 003f bab0 543c 492e 2339 5f6a 09bd
000001b0: e1a9 acbe efe7 7d3c 1e3a af3b 026f 103c
000001c0: eaef 1b3d 776f cc3c 59e3 a23c 1aa1 00bc
000001d0: a874 a73b 809d e03b 86e6 a13c 57c6 f9b9
000001e0: 3113 2f3c d28d 1abc 570d 09bc a892 35b8
000001f0: 805a 8b3d 3527 3ebe 0984 af3d f71c 5f3d
00000200: 3a31 593e 8d5e 90be 362c 54be 0cb9 b2bd
00000210: 4160 123e d3a6 cc3d 3297 dd3d 7cfb 10bd
00000220: 2d21 393d b6dc c23d 1a0a 4dbd d995 333e
00000230: 0d0b 4a3e e9a0 5bbb eb81 863d 74d6 e2bd
00000240: 88d8 d33d ce72 4a3e e89c f2bc 869c 193e
00000250: b21e 2db9 b89d 5fbe 707c 813d ec10 f2bb
00000260: 15b9 5cbd 9635 b73c 4112 4cbd 20d4 27bc
00000270: f483 9b3d a909 583d 93e0 96bc b2ac b43c
00000280: 370e 933c d970 f83c e305 a23c 2bba 9abb
00000290: e1c3 623c fbbc 01bd 83db 2cbe 1c5e b1be
000002a0: be5c 083e fc1d 96bd 801b 993e 2d8a cc3d
000002b0: 04fc 8dbb 2515 47bd 0e37 49be 905b c13d
000002c0: a8ab 033e 729c 6a3e 58c9 8e3e eeed c6be
000002d0: db79 873e 364e 8cbe 4774 21be 3a2a 953d
000002e0: 20e5 8fbe 5384 30be 22a1 f5bd 4317 31bd
000002f0: 85c3 fbbd 470b 6e3d 5beb 8a3d 6241 c53c
00000300: e9ab e43d dd7c 1a3e 3277 25be f121 c4bd
00000310: 50c6 4ebd b665 47bc 3d42 343d 8545 123e
00000320: 3df2 263c a40d d8bd 1a68 d43d 7f72 87be
00000330: b331 b63d bf43 47bd 05bc 873e 0ac3 f73d
00000340: 5ea6 4d3e d3ee 4a3f b546 9fbe 0720 b83c
00000350: 56b4 8b3c 3bbd abbe 2031 aebb cab5 ed3c
00000360: 369d 0f3e 42e4 a33d c1aa a7bd d8ff 183e
00000370: f644 5c3d 29b8 bebd e68f 8d3d d8cf 21be
00000380: b187 bbbd 1304 c9bc 2eaa a5bd a8a7 e3bd
00000390: 5b96 14bd 8ae4 90be c825 4abc 730a 32be
000003a0: f44e c43d 3614 1d3e 8f73 b43e 729e 3f3e
000003b0: eb36 303e c3a3 083e ce8c 5cbd fc1e aebb
000003c0: 3c88 de3d 410d 2cbc cbdd 97bc 8df8 77bb
000003d0: 9418 863d c9ff d8bd 5315 8dbd 5e26 753d
000003e0: a531 c53c 48b6 c13e 5764 0dbd aaaa fc3d
000003f0: 8ac2 babd 993d adbb ec53 2ebb 5b14 e63b

conv2.lin_l.weight f4 [128, 128]
0.076600574 -0.078280255 0.061908156 0.056660198 0.09342598 0.089748114 -0.016331106 0.023261607
0.03925716 -0.062730946 0.13761328 0.05949133 0.007171857 -0.051633652 -0.16679953 -0.0075635235
0.053831004 0.10249598 -0.017616972 0.03210633 -0.022899585 0.0054901126 -0.03492137 -0.060112104
-0.045978855 0.09182263 0.08879657 0.04031904 -0.03825831 -0.039781436 -0.0047956305 -0.059440695
0.0640384 -0.051785186 0.08489257 0.06326453 0.08094694 0.06944552 0.19452439 -0.005362563
-0.11495019 0.10772041 -0.027886473 -0.043792047 0.06409693 -0.0087543875 0.032169636 -0.113396704
-0.08114533 -0.017004253 -0.009937923 -0.02044521 -0.035761386 0.11159313 0.07616107 0.09982105
0.048629854 -0.14499085 0.06723727 0.1136369 -0.039896343 -0.02047731 -0.020007543 0.060649063
0.026068322 -0.10754114 -0.028343638 0.026152177 -0.069700606 -0.079847395 0.031086229 0.031455886
-0.07119758 0.02583054 -0.019169489 -0.021176342 0.031758115 -0.05907865 0.081355914 -0.018257279
-0.07188149 -0.08152968 0.06511724 0.07727593 0.036904413 0.08468894 0.0025379828 -0.035709593
-0.03122269 0.04340498 0.064119875 0.103455976 0.03472409 -0.036386758 -0.08109221 -0.06677459
-0.0056348536 0.025886578 0.093226366 0.09868645 0.0492915 -0.048099894 0.060729913 -0.2504599
-0.044987705 -0.014220856 -0.010220616 0.049888078 0.0632479 -0.03947584 -0.14493324 0.048477426
0.093678474 -0.06711023 -0.026436245 -0.04346357 -0.11697247 0.10111706 0.0034150286 -0.003486608
0.014198174 0.06276516 -0.06714094 -0.05145482 -0.013560617 -0.044271454 -0.01059052 -0.08213953
0.1193039 0.0038997224 0.06127665 0.078676574 0.03206259 0.014073356 0.0633208 0.07784357
0.0946126 0.049308117 -0.040605973 0.053802863 -0.094642654 0.014984972 0.087169245 -0.0047963094
-0.0016605714 -0.048001394 -0.07050775 -0.042283818 0.051782064 0.076252535 0.018711116 -0.06028037
0.007420066 -0.07456837 -0.028132787 0.12331743 -0.028413834 -0.032634594 0.04075143 0.04110294
0.06765243 0.05359501 0.07875339 -0.0290004 -0.06563222 -0.062388327 0.23717965 0.016295293
-0.12956382 0.077601634 -0.01106854 -0.014738452 0.0016052439 -0.03980819 -0.0350674 -0.05472166
0.035488755 0.026702365 0.086008914 -0.014218889 -0.012601139 0.097014 -0.08280599 -0.054685406
0.03277534 -0.006553874 -0.02070441 0.063450314 -0.08642251 -0.041172512 -0.007964842 -0.005934593
0.039774865 0.0249091 0.03693384 -0.06678175 0.08221448 0.047813024 0.017833907 -0.09359372
-0.03949271 -0.049561515 -0.079423085 0.04226044 0.07062937 0.07335614 -0.028991029 -0.014699786
0.040390316 0.046984408 0.004498161 -0.002832618 -0.038428616 0.02750087 -0.07495151 0.026095558
0.074821934 -0.08015917 -0.07364302 -0.034800213 0.03289038 -0.034380376 0.055820014 0.10989643
-0.04839741 -0.085765645 0.027713325 -0.052223098 -0.0020446866 -0.067210115 0.047049608 -0.13129611
-0.024776548 -0.07093181 -0.07812395 -0.023621721 -0.010944177 -0.073101945 -0.13100316 -0.04511573
0.052459955 0.10215246 -0.071038134 0.048731584 -0.055997964 -0.06774215 0.07761249 -0.0014285154
-0.06682838 0.048705302 0.011014357 0.016020378 0.057040866 0.058943972 0.07258526 -0.108486995
00000000: c3e0 9c3d 6651 a0bd 6893 7d3d 8614 683d
00000010: 1f56 bf3d dccd b73d d0c8 85bc 208f be3c
00000020: 1ecc 203d 1579 80bd 7fea 0c3e 2ead 733d
00000030: e601 eb3b cf7d 53bd 7fcd 2abe 6fd7 f7bb
00000040: e67d 5c3d 6ae9 d13d 7851 90bc ed81 033d
00000050: e997 bbbc 67e6 b33b b609 0fbd 1c38 76bd
00000060: 5354 3cbd 810d bc3d fada b53d 9425 253d
00000070: bfb4 1cbd dcf1 22bd aa24 9dbb 1678 73bd
00000080: 9126 833d b41c 54bd 28dc ad3d d590 813d
00000090: 82c7 a53d 7439 8e3d 6731 473e 70b8 afbb
000000a0: 016b ebbd 859c dc3d 2c72 e4bc 4a5f 33bd
000000b0: 4045 833d 906e 0fbc 4fc4 033d 883c e8bd
000000c0: 862f a6bd 814c 8bbc acd2 22bc b77c a7bc
000000d0: 887a 12bd f08a e43d 56fa 9b3d fb6e cc3d
000000e0: 1930 473d 7b78 14be b2b3 893d 77ba e83d
000000f0: 596a 23bd 08c0 a7bc dce6 a3bc 276b 783d
00000100: 3c8d d53c 873e dcbd eb30 e8bc 173d d63c
00000110: 31bf 8ebd 0887 a3bd 8ca8 fe3c e3d7 003d
00000120: 09d0 91bd 929a d33c 5509 9dbc 027a adbc
00000130: cc14 023d 74fc 71bd ee9d a63d 4a90 95bc
00000140: 9a36 93bd 08f9 a6bd 305c 853d d842 9e3d
00000150: 1529 173d 6571 ad3d 4954 263b 3944 12bd
00000160: bac6 ffbc 6cc9 313d 4851 833d bae0 d33d
00000170: d93a 0e3d 480a 15bd ac13 a6bd 1ec1 88bd
00000180: 94a4 b8bb 1710 d43c 77ed be3d 1f1c ca3d
00000190: e2e5 493d 6504 45bd eebf 783d 483c 80be
000001a0: 0745 38bd 98fe 68bc 5f74 27bc 7157 4c3d
000001b0: 1d88 813d 6bb1 21bd 6169 14be 4490 463d
000001c0: 80da bf3d 1771 89bd d390 d8bc db06 32bd
000001d0: 438f efbd 7616 cf3d acce 5f3b 937f 64bb
000001e0: 759f 683c 058b 803d 3081 89bd 4ac2 52bd
000001f0: 5a2d 5ebc fc55 35bd dc83 2dbc c538 a8bd
00000200: 9a55 f43d 7c92 7f3b 39fd 7a3d 2f21 a13d
00000210: 1054 033d ef93 663c 56ae 813d 736c 9f3d
00000220: 40c4 c13d 4ff7 493d 7352 26bd 6460 5c3d
00000230: 02d4 c1bd 8783 753c ca85 b23d 5c2a 9dbb
00000240: 88a7 d9ba 1c9d 44bd 5e66 90bd cc31 2dbd
00000250: 6e19 543d 4a2a 9c3d 0e48 993c 8de8 76bd
00000260: 0624 f33b 4db7 98bd bb76 e6bc d98d fc3d
00000270: 21c4 e8bc daab 05bd f9ea 263d 8e5b 283d
00000280: 5b8d 8a3d 7186 5b3d 7549 a13d 3f92 edbc
00000290: 2f6a 86bd e78a 7fbd 39df 723e b57d 853c
000002a0: 61ac 04be 9bed 9e3d d258 35bc 8c79 71bc
000002b0: 0c67 d23a ea0d 23bd d6a2 0fbd d223 60bd
000002c0: a85c 113d ebbe da3c 7125 b03d 58f6 68bc
000002d0: 0275 4ebc 47af c63d 3096 a9bd cefd 5fbd
000002e0: 6f3f 063d e1c1 d6bb 4b9c a9bc 3df2 813d
000002f0: 49fe b0bd 82a4 28bd f87e 02bc f976 c2bb
00000300: f8ea 223d 2b0e cc3c f047 173d dfc4 88bd
00000310: 1160 a83d 97d7 433d 6a18 923c 10ae bfbd
00000320: 1cc3 21bd 0401 4bbd 92a8 a2bd 4819 2d3d
00000330: 22a6 903d be3b 963d 987e edbc 5fd7 70bc
00000340: 5170 253d b972 403d 4f65 933b 72a3 39bb
00000350: 5367 1dbd 8149 e13c 2d80 99bd 5ac6 d53c
00000360: 3e3c 993d 7e2a a4bd 27d2 96bd ab8a 0ebd
00000370: 10b8 063d 70d2 0cbd 87a3 643d 6111 e13d
00000380: 5d3c 46bd e6a5 afbd 0e07 e33c e3e7 55bd
00000390: 2600 06bb 75a5 89bd 17b7 403d 7d72 06be
000003a0: 30f8 cabc b244 91bd 73ff 9fbd 5782 c1bc
000003b0: 354f 33bc 79b6 95bd b125 06be 46cb 38bd
000003c0: 40e0 563d 4f35 d13d 717c 91bd c59a 473d
000003d0: 1f5e 65bd 65bc 8abd 4cf3 9e3d 063d bbba
000003e0: 51dd 88bd 367f 473d 9075 343c 2b3d 833c
000003f0: afa3 693d 3c6f 713d 95a7 943d 6e2e debd

conv2.lin_l.bias f4 [128]
0.07236877 -0.07239816 -0.031639006 0.06926083 -0.036132835 -0.01522085 -0.07658494 0.00580794
0.057563055 0.052500892 0.04568986 0.05538694 -0.060294602 0.017105488 0.05648184 0.08303321
0.022784375 0.0127937505 -0.013650626 0.039385572 0.031774215 -0.039283242 -0.05863671 -0.0067079356
0.0687768 0.03295515 -0.0058735227 0.025664907 0.032940067 -0.040069018 -0.028647164 -0.08233535
-0.056998823 0.03240924 0.030987458 0.04497568 -0.05071732 0.045846667 0.03145307 0.049110264
-0.08495623 0.042497057 -0.02708782 -0.051804777 0.0120486235 -0.064044096 -0.055394076 -0.069893345
0.018135045 -0.046235755 0.0032637469 0.066139296 0.012039869 0.067404635 0.0056635514 0.0531068
-0.067203425 -0.08237185 0.06505815 0.01374201 -0.03836874 -0.08473491 0.07570482 0.049914878
0.07461539 -0.0077705453 -0.03392398 0.061441448 0.023544256 -0.05965081 -0.006051481 0.0141474055
0.08641037 0.03950973 0.07318333 -0.07710036 0.021322891 0.078044534 0.08159386 -0.025913589
0.012387514 0.06571462 0.005796496 -0.06276091 -0.02195519 0.021313943 0.0013941699 -0.0045079878
-0.07172658 0.040166657 -0.04383685 -0.051460043 -0.08462346 -0.050419863 -0.046295714 0.023029556
0.08788314 -0.017271535 0.057407174 -0.079866275 0.017257722 -0.053391322 0.069026604 0.047929693
0.03763259 -0.033588067 -0.07320277 0.0146077825 -0.05571125 -0.046133287 0.033423238 0.051722508
-0.023471063 -0.041472953 -0.08848098 0.0395836 0.03187107 -0.04803272 0.05502044 0.068968214
-0.08857263 0.035125095 0.064856246 0.029038947 -0.00048607984 0.05098236 -0.019610971 0.042694703
00000000: 1436 943d 7d45 94bd e797 01bd 9fd8 8d3d
00000010: 0600 14bd df60 79bc 91d8 9cbd 8850 be3b
00000020: 3dc7 6b3d 2d0b 573d 4a25 3b3d 6add 623d
00000030: 79f7 76bd cf20 8c3c 8059 673d 510d aa3d
00000040: 4ca6 ba3c e19c 513c e0a6 5fbc c452 213d
00000050: ae25 023d 77e7 20bd 0c2d 70bd 3ece dbbb
00000060: dada 8c3d fbfb 063d ae76 c0bb 363f d23c
00000070: 2aec 063d 691f 24bd 75ad eabc 709f a8bd
00000080: 9977 69bd 8dbf 043d 69d9 fd3c 6b38 383d
00000090: f7bc 4fbd b7c9 3b3d efd4 003d d827 493d
000000a0: 88fd adbd 6511 2e3d 47e7 ddbc 3f31 54bd
000000b0: 9767 453c 8d29 83bd e6e4 62bd 3e24 8fbd
000000c0: f28f 943c b461 3dbd 96e4 553b 0a74 873d
000000d0: df42 453c 710b 8a3d 5095 b93b 8486 593d
000000e0: f3a1 89bd 93b2 a8bd 353d 853d 2b26 613c
000000f0: 8a28 1dbd 7f89 adbd 210b 9b3d 8b73 4c3d
00000100: f4cf 983d 0fa0 febb dff3 0abd 07aa 7b3d
00000110: e2df c03c 6854 74bd 804b c6bb 85ca 673c
00000120: ecf7 b03d f4d4 213d 24e1 953d cbe6 9dbd
00000130: 58ad ae3c d0d5 9f3d af1a a73d bc48 d4bc
00000140: 00f5 4a3c 6395 863d 88f0 bd3b cb88 80bd
00000150: 5fdb b3bc 949a ae3c 94bc b63a beb7 93bb
00000160: 63e5 92bd cb85 243d 458e 33bd c4c7 52bd
00000170: 114f adbd 0f85 4ebd 93a0 3dbd 7ba8 bc3c
00000180: 13fc b33d 097d 8dbc c923 6b3d ee90 a3bd
00000190: 1160 8d3c dcb0 5abd d25d 8d3d ed51 443d
000001a0: a124 1a3d a493 09bd 55eb 95bd 7b55 6f3c
000001b0: 7b31 64bd 42f6 3cbd cee6 083d fbda 533d
000001c0: 6346 c0bc 8bdf 29bd 8435 b5bd 6a22 223d
000001d0: 3d8b 023d f5bd 44bd 1d5d 613d 353f 8d3d
000001e0: 9165 b5bd 55df 0f3d 5ad3 843d 16e3 ed3c
000001f0: 88d8 feb9 e1d2 503d 30a7 a0bc a4e0 2e3d

conv2.lin_r.weight f4 [128, 128]
0.07639199 -0.0076829796 -0.058128696 0.02889662 -0.031452607 -0.026164044 0.026873285 0.037635766
-0.0019073918 -0.017011462 0.00063310936 -0.048783764 -0.008028503 -0.02948063 -0.03518741 -0.042317465
0.009100754 -0.04129936 -0.02231762 -0.03497044 0.032844275 -0.089978725 0.0356724 0.059422906
0.04063741 0.0045075053 -0.011481429 0.08208847 0.00073636405 -0.01523718 -0.012425972 0.035221122
-8.4260915e-05 -0.017620465 0.0967374 -0.023591504 0.01120522 -0.045352414 -0.04690908 0.05202684
0.034672838 -0.081380874 -0.04831393 0.0065074004 -0.056507464 0.0122293765 0.0022409996 0.04654082
-0.007873714 0.041253407 0.058536325 -0.012254291 -0.040298313 -0.025793163 0.028066993 0.01312137
-0.1466497 0.042997666 -0.015390217 -0.030437518 0.005365599 0.02556615 -0.03266412 0.006750964
0.05087137 0.027067132 -0.03781307 0.1630146 -0.020798095 0.07552192 0.06740669 -0.03772836
-0.050829653 0.022608176 -0.025615336 0.015573515 0.010157671 -0.016748862 0.019578194 -0.01845897
-0.018373799 0.06223282 -0.03388658 0.01251915 0.0028005058 0.013077668 -0.11793833 -0.003546504
-0.03584846 0.014896907 -0.0047119674 0.12016158 0.0685374 -0.0011723036 0.024835074 0.16621204
0.17224579 -0.022663001 0.00076828804 -0.0275927 -0.00718531 0.09762601 -0.034472726 -0.049100347
-0.060840096 0.050131604 0.045799524 -0.008171398 -0.009560113 -0.03728519 0.03602003 0.08209145
-0.051907897 0.09366331 -0.08537555 -0.014039474 -0.0053193066 -0.068310596 -0.026357109 -0.036551245
-0.01529604 0.031021724 -0.076523185 -0.00300622 0.060805127 -0.0719875 -0.030905312 -0.014285722
0.06283679 -0.12406258 0.057096787 -0.026102792 -0.01250325 0.17811356 0.02925591 -0.035639107
0.005308775 0.009329361 -0.042055234 0.030950451 -0.013223711 0.03579022 0.020685246 -0.010257912
-0.034952164 0.031179568 -0.019181447 -0.007328034 0.04940438 0.0018645353 0.0047671725 -0.2365645
0.00691131 -0.024607938 -0.0064371526 0.06520662 -0.055241246 0.07053676 -0.021493394 -0.017807985
-0.011184368 -0.02012135 0.032021973 -0.012972515 -0.00078013353 -0.007962354 0.020883007 0.05670639
-0.054830812 -0.028205454 0.03446941 -0.10172809 0.017297894 -0.050371386 0.009742164 -0.028385349
0.058443252 0.069087386 -0.046173505 -0.03959964 0.016303182 -0.008900985 0.0170089 0.010738447
0.15973186 -0.15671253 -0.059685003 0.023037115 -0.022599597 0.0006654565 -0.06897228 -0.0038971426
0.055887323 -0.05688619 -0.050705492 -0.08148788 0.0047874046 -0.104383625 0.07263282 -0.036776435
0.0038905176 0.056988757 0.16219918 -0.008126427 0.032781146 -0.036035392 0.0016267506 -0.01901291
-0.021432048 0.041108895 -0.16420116 0.028399972 0.0011791144 -0.045956265 0.014599171 0.015536593
-0.014294677 0.044959012 -0.06437765 -0.022737658 -0.03504899 -0.011198615 -0.0578126 -0.038140297
0.046033114 -0.026971683 0.043916866 0.037512567 -0.015777966 0.004948557 -0.18120265 -0.011689738
-0.0122313835 -0.071095794 -0.032054335 0.013220186 0.02659985 0.005698663 -0.015576579 -0.042986218
-0.01528269 -0.06552184 -0.0076237186 -0.052312855 -0.016602518 -0.01656553 -0.0065468038 -0.015610459
0.009521752 0.010329895 -0.093510404 0.060608886 -0.001754776 -0.0568717 0.034091875 -0.017525477
00000000: 6773 9c3d 81c1 fbbb 5b18 6ebd 9bb8 ec3c
00000010: 73d4 00bd fa55 d6bc 5d25 dc3c f627 1a3d
00000020: 7301 faba 9f5b 8bbc 40f7 253a 7cd1 47bd
00000030: fb89 03bc 5d81 f1bc ac20 10bd 1455 2dbd
00000040: 541b 153c 8529 29bd 71d3 b6bc 2a3d 0fbd
00000050: b887 063d c446 b8bd 391d 123d 6f65 733d
00000060: 6a73 263d b2b3 933b 9b1c 3cbc 001e a83d
00000070: 8e08 413a 5da5 79bc 4e96 4bbc 0644 103d
00000080: 3cb5 b0b8 cb58 90bc 421e c63d f842 c1bc
00000090: 1996 373c 74c3 39bd bc23 40bd 191a 553d
000000a0: 1b05 0e3d 04ab a6bd d4e4 45bd 083c d53b
000000b0: 5f74 67bd b95d 483c bcdd 123b 96a1 3e3d
000000c0: c000 01bc 55f9 283d c9c3 6f3d 39c6 48bc
000000d0: d80f 25bd 2f4c d3bc c0ec e53c 04fb 563c
000000e0: 572b 16be 521e 303d 4027 7cbc 1a58 f9bc
000000f0: e8d1 af3b 1a70 d13c d0ca 05bd 3137 dd3b
00000100: 7f5e 503d e4bb dd3c e1e1 1abd 4ded 263e
00000110: c460 aabc 3dab 9a3d 850c 8a3d 0e89 1abd
00000120: c132 50bd c834 b93c 41d7 d1bc 0e28 7f3c
00000130: 5c6c 263c e934 89bc 7362 a03c 4437 97bc
00000140: a684 96bc d7e7 7e3d a8cc 0abd 1f1d 4d3c
00000150: b188 373b b743 563c a789 f1bd 776c 68bb
00000160: d6d5 12bd 2812 743c d966 9abb 4617 f63d
00000170: 565d 8c3d fba7 99ba ed72 cb3c 7d33 2a3e
00000180: 3361 303e c2a7 b9bc f066 493a 160a e2bc
00000190: c072 ebbb 25f0 c73d 4633 0dbd 721d 49bd
000001a0: 7733 79bd cc56 4d3d 4898 3b3d 54e1 05bc
000001b0: 05a2 1cbc 5bb8 18bd bd89 133d 901f a83d
000001c0: 609d 54bd 8dd2 bf3d 60d9 aebd d205 66bc
000001d0: 944d aebb 6de6 8bbd ddea d7bc c2b6 15bd
000001e0: 3e9c 7abc 4521 fe3c 30b8 9cbd 0104 45bb
000001f0: cc0e 793d 2f6e 93bd 232d fdbc a90e 6abc
00000200: 93b0 803d 8614 febd 52de 693d 86d5 d5bc
00000210: 6eda 4cbc 6763 363e 17aa ef3c 50fa 11bd
00000220: 3cf5 ad3b 2dda 183c 1c42 2cbd cd8b fd3c
00000230: 44a8 58bc c498 123d 1b74 a93c cd10 28bc
00000240: 002a 0fbd 4b6c ff3c 6922 9dbc 0120 f0bb
00000250: 3f5c 4a3d 6c63 f43a f135 9c3b f73d 72be
00000260: 4578 e23b 9696 c9bc c0ee d2bb 0c8b 853d
00000270: a544 62bd 9475 903d ea12 b0bc 0de2 91bc
00000280: a43e 37bc 88d5 a4bc 7929 033d ac8a 54bc
00000290: e081 4cba 8974 02bc d712 ab3c f644 683d
000002a0: 4696 60bd 200f e7bc cc2f 0d3d d156 d0bd
000002b0: 50b4 8d3c 3a52 4ebd 999d 1f3c 6488 e8bc
000002c0: 3162 6f3d b07d 8d3d 6e20 3dbd 3b33 22bd
000002d0: 408e 853c 70d5 11bc 4056 8b3c 50f0 2f3c
000002e0: c090 233e 4079 20be 4378 74bd 55b8 bc3c
000002f0: ca22 b9bc 0872 2e3a 5741 8dbd 3467 7fbb
00000300: 1bea 643d 7e01 69bd 90b0 4fbd 1ee3 a6bd
00000310: a9df 9c3b 15c7 d5bd 84c0 943d e3a2 16bd
00000320: 0ef8 7e3b 0b6d 693d 8b17 263e b524 05bc
00000330: 8645 063d d999 13bd b138 d53a f6c0 9bbc
00000340: 4392 afbc cd61 283d 5924 28be 0fa7 e83c
00000350: 848c 9a3a a33c 3cbd 5c31 6f3c 328d 7e3c
00000360: 3934 6abc f126 383d 6ed8 83bd 5344 babc
00000370: 888f 0fbd 657a 37bc e8cc 6cbd 0039 1cbd
00000380: 388d 3c3d b8f3 dcbc 2ce2 333d c7a6 193d
00000390: cb40 81bc 8127 a23b 308d 39be 5186 3fbc
000003a0: 2466 48bc ac9a 91bd 684b 03bd 7b99 583c
000003b0: eee7 d93c dabb ba3b e834 7fbc 5112 30bd
000003c0: 3f64 7abc 5030 86bd 63d0 f9bb 0146 56bd
000003d0: 0102 88bc 6fb4 87bc 9286 d6bb 03c3 7fbc
000003e0: 1f01 1c3c b83e 293c 6282 bfbd 0641 783d
000003f0: 8300 e6ba 4df2 68bd eca3 0b3d 9791 8fbc

conv3.lin_l.weight f4 [128, 128]
0.040762745 0.100178204 0.07707725 0.0616804 -0.034972154 -0.070626885 -0.044547115 -0.009031996
0.009873495 0.082291186 0.01797977 0.055132616 -0.047667243 0.049354486 -0.04634085 -0.06693183
0.08757163 0.08056312 -0.016929144 0.09380409 0.07684819 -0.04790008 -0.058303356 0.030818595
0.061928973 0.037377793 0.041886132 0.013197072 0.0073947557 0.005669073 -0.0063827853 -0.03879566
-0.017191557 -0.071175866 0.00019617176 -0.036191672 -0.077211656 0.017785775 0.04855198 0.07209988
0.02543244 -0.02161865 0.073829316 -0.06547774 0.048799496 -0.057940304 -0.018362049 -0.004842127
0.12840015 -0.023689363 -0.077074066 -0.03758474 0.065457866 -0.0075796866 0.038703717 0.070091866
0.02016582 0.11818662 0.093582846 0.038044836 0.059620824 0.054099135 -0.055470366 0.057051558
0.00255285 -0.035716727 -0.072149195 -0.06489006 -0.037291512 -0.024510158 -0.024425576 0.0234293
0.032522805 -0.06315762 -0.05966502 0.10018256 -0.030074736 0.053499136 -0.023273008 -0.0249351
-0.08609989 -0.062793255 -0.062404692 -0.08525208 0.051804435 0.05455439 0.06511042 -0.050516192
0.11925298 -0.009658324 -0.04639725 -0.01077375 -0.042753227 0.03303891 0.08427231 -0.004846566
0.0029235806 -0.03669143 -0.0348915 0.06430015 0.08117808 -0.04706202 7.526156e-05 -0.01896694
-0.022882761 0.09331696 0.032993093 -0.01972801 0.04529659 0.047191475 0.07621237 -0.014592562
0.04314863 0.08949377 -0.017200802 0.074065246 -0.025696527 -0.07259951 0.0038185553 -0.013456922
0.0037551995 0.040082235 -0.07003182 -0.038076367 0.06254244 0.0026288077 -0.019778507 -0.045817394
-0.08952766 -0.039328698 -0.06654721 0.07562991 0.046581227 0.07631091 -0.0050564157 -0.09090516
-0.046641573 -0.0051918896 -0.070323914 0.045268185 -0.03518536 0.0069999644 -0.028187918 0.0338478
-0.08789532 -0.07203483 -0.028842792 0.05649219 0.09902918 -0.005163276 0.07808129 -0.02167317
-0.06626244 0.019714283 0.0818789 -0.04018518 0.020516234 -0.021760467 0.02213299 0.079923145
0.04292446 -0.029749257 0.013965541 0.021270493 -0.0683395 -0.014507655 0.072050765 -0.06387365
-0.05469731 -0.012086044 -0.015912728 0.015111888 -0.07041015 0.04467066 0.08535858 -0.024398733
0.080059975 0.043447778 -0.042180113 -0.046573613 -0.07852363 -0.040772926 0.057735413 0.0076511707
0.05082358 -0.04322234 0.0415073 -0.008692047 -0.030602321 -0.017540608 -0.010067475 -0.040258773
-0.065100245 0.05115236 0.0065264944 0.019606514 0.036602493 -0.072402105 0.021539891 -0.08057596
0.03396678 -0.041454468 -0.124683596 0.036789127 -0.05539541 -0.044996146 0.09503951 -0.07343647
0.029422946 -0.0065850723 -0.0059683723 0.0723245 0.07244164 0.073562436 0.027747717 -0.0009122182
0.04820198 -0.07315638 -0.0092285415 -0.06458085 0.058685433 0.046152905 0.06901072 0.033357892
-0.08130085 0.05012096 0.018016921 -0.10551441 0.041384384 0.071035184 0.08345809 -0.012638456
0.066037804 -0.000710446 -0.053533748 0.0616472 0.097455874 -0.02907809 0.018957857 0.0537656
0.0029203382 0.025654238 0.07249428 0.092129804 0.07794117 0.00557904 -0.07133878 0.011732745
-0.054377735 0.059810475 -0.052773766 0.024886198 -0.042789456 -0.040403258 -0.04384578 -0.026953224
00000000: d6f6 263d 3b2a cd3d adda 9d3d 96a4 7c3d
00000010: f63e 0fbd d4a4 90bd 0977 36bd f0fa 13bc
00000020: 71c4 213c 4888 a83d 504a 933c bdd2 613d
00000030: ba3e 43bd ee27 4a3d e7cf 3dbd 8e13 89bd
00000040: c158 b33d 47fe a43d fdae 8abc 5c1c c03d
00000050: 9562 9d3d e032 44bd 80cf 6ebd 4777 fc3c
00000060: 3ca9 7d3d 7519 193d cb90 2b3d 8838 583c
00000070: b54f f23b a2c3 b93b af26 d1bb 33e8 1ebd
00000080: 4fd5 8cbc a7c4 91bd 75b3 4d39 b83d 14bd
00000090: 2521 9ebd 79b3 913c 71de 463d 1aa9 933d
000000a0: b157 d03c 9819 b1bc d333 973d 3119 86bd
000000b0: fbe1 473d d052 6dbd 026c 96bc b5aa 9ebb
000000c0: 547b 033e 3210 c2bc 02d9 9dbd 75f2 19bd
000000d0: c60e 863d 055f f8bb ca87 1e3d 538c 8f3d
000000e0: ca32 a53c d40b f23d 5da8 bf3d e7d4 1b3d
000000f0: f734 743d 0e97 5d3d e534 63bd e5ae 693d
00000100: b74d 273b b44b 12bd f5c2 93bd 14e5 84bd
00000110: fcbe 18bd 87c9 c8bc 2518 c8bc ceee bf3c
00000120: a236 053d c858 81bd 4f63 74bd 842c cd3d
00000130: 4b5f f6bc e921 5b3d 09a7 bebc b244 ccbc
00000140: 2455 b0bd c099 80bd 109c 7fbd a498 aebd
00000150: e330 543d 6d74 5f3d 9d58 853d 11ea 4ebd
00000160: e83a f43d f23d 1ebc 0b0b 3ebd 6284 30bc
00000170: 021e 2fbd cf53 073d f696 ac3d f1cf 9ebb
00000180: 8b99 3f3b c149 16bd 64ea 0ebd ccaf 833d
00000190: b140 a63d 1bc4 40bd bed5 9d38 8e60 9bbc
000001a0: a174 bbbc f61c bf3d c423 073d a39c a1bc
000001b0: eb88 393d d94b 413d 3b15 9c3d a415 6fbc
000001c0: 9ebc 303d 8248 b73d b2e8 8cbc 85af 973d
000001d0: 8681 d2bc 0daf 94bd ba40 7a3b 6c7a 5cbc
000001e0: cb19 763b 452d 243d d86c 8fbd f7f5 1bbd
000001f0: 4016 803d 1348 2c3b 8906 a2bc 05ab 3bbd
00000200: 475a b7bd 2117 21bd e749 88bd dbe3 9a3d
00000210: f5cb 3e3d e548 9c3d 4ab0 a5bb 7c2c babd
00000220: 3c0b 3fbd ba20 aabb fc05 90bd 226b 393d
00000230: 861e 10bd f55f e53b 59ea e6bc fea3 0a3d
00000240: 7602 b4bd ff86 93bd b847 ecbc 5b64 673d
00000250: d0cf ca3d b330 a9bb 15e9 9f3d ef8b b1bc
00000260: 9ab4 87bd d97f a13c 20b0 a73d 3799 24bd
00000270: a911 a83c 0243 b2bc 3f50 b53c bfae a33d
00000280: 8fd1 2f3d b7b4 f3bc b9cf 643c 753f ae3c
00000290: 94f5 8bbd 84b1 6dbc 5a8f 933d 30d0 82bd
000002a0: 490a 60bd 8b04 46bc 695b 82bc da97 773c
000002b0: 3233 90bd 95f8 363d 7bd0 ae3d dadf c7bc
000002c0: 7cf6 a33d 4cf6 313d 0ec5 2cbd f9c3 3ebd
000002d0: ffd0 a0bd 8301 27bd f87b 6c3d acb6 fa3b
000002e0: 632c 503d e909 31bd 8f03 2a3d 1669 0ebc
000002f0: b8b1 fabc 52b1 8fbc 0df2 24bc 62e6 24bd
00000300: 4753 85bd 2385 513d 34dc d53b d79d a03c
00000310: 7fec 153d 8e47 94bd 6d74 b03c 0205 a5bd
00000320: c020 0b3d 29cc 29bd 1d5a ffbd 32b0 163d
00000330: 4ce6 62bd e14d 38bd 13a4 c23d dc65 96bd
00000340: 6408 f13c 97c7 d7bb 5692 c3bb de1e 943d
00000350: 485c 943d e7a7 963d 2e4f e33c ed21 6fba
00000360: 706f 453d 03d3 95bd 4f33 17bc f742 84bd
00000370: 2360 703d d40a 3d3d 7e55 8d3d 49a2 083d
00000380: 0f81 a6bd a34b 4d3d 3998 933c f017 d8bd
00000390: ac82 293d e57a 913d 13ec aa3d 8711 4fbc
000003a0: d43e 873d 393d 3aba 3446 5bbd c681 7c3d
000003b0: f296 c73d 2d35 eebc 824d 9b3c 5139 5c3d
000003c0: 2563 3f3b d628 d23c e277 943d 8dae bc3d
000003d0: 9f9f 9f3d 61d0 b63b 111a 92bd b33a 403c
000003e0: 30bb 5ebd d4fb 743d 4e29 58bd 24de cb3c
000003f0: ff43 2fbd e37d 25bd a297 33bd 02cd dcbc

conv3.lin_l.bias f4 [128]
-0.011585843 -0.056304302 0.018562168 0.07229957 -0.049128283 -0.053071085 0.008817797 -0.07257333
0.043878455 0.065236904 0.04017322 -0.054838497 -0.02644628 -0.031323656 0.013194592 0.012240953
0.067909926 -0.027298432 -0.049955104 0.067448616 -0.0011149741 -0.014278931 -0.016106676 -0.018101592
0.06875523 0.062270768 -0.027376749 0.089047685 -0.0006994096 0.06535634 -0.07654158 0.008836302
0.032255683 -0.0057502454 -0.027737526 0.049204547 -0.047280803 0.079633996 0.073933095 0.08305052
-0.022242097 0.0530896 -0.08282182 -0.06643516 0.009266342 0.050262816 0.06734443 -0.0059158215
-0.06743476 0.08504012 -0.052140277 0.027624233 -0.02190774 0.044402044 -0.08570391 0.026673162
-0.04033396 0.04327728 -0.08361197 0.009941876 -0.06865471 0.07045089 0.04259242 -0.022509517
0.02589308 0.011094135 0.050938867 0.040861126 -0.11968581 0.015997643 0.07478735 -0.07728662
-0.017333841 -0.07158646 0.021424398 0.010183308 0.0013450112 -0.0777563 0.08029364 -0.06640212
-0.078104824 0.007826079 -0.0388364 -0.07484009 -0.019185461 -0.096144535 -0.06973219 -0.08672719
0.08589987 0.050578754 -0.04133688 0.017409211 0.065937735 -0.07583085 -0.0039503756 -0.00411738
0.03930353 0.018554738 -0.0017611989 0.011874229 -0.07782638 0.08366015 -0.04023744 -0.072689675
-0.037593175 -0.0016509587 -0.071217 0.03193934 -0.022757718 -0.03416129 -0.08170112 -0.075179465
-0.04832846 -0.06755285 -0.009856621 -0.032476667 -0.06688058 -0.0006862763 0.06337159 0.088368975
-0.042844627 -0.0016498799 -0.06978583 0.041221455 -0.024897547 0.060861763 -0.040598683 0.061597917
00000000: 8cd2 3dbc 579f 66bd b00f 983c cc11 943d
00000010: bd3a 49bd 1161 59bd 8578 103c 53a1 94bd
00000020: e5b9 333d ed9a 853d ad8c 243d 559e 60bd
00000030: dea5 d8bc 3c4d 00bd 212e 583c 478e 483c
00000040: 5c14 8b3d f6a0 dfbc b99d 4cbd 8022 8a3d
00000050: 5324 92ba 2df2 69bc 26f2 83bc ca49 94bc
00000060: 8bcf 8c3d a20f 7f3d 3445 e0bc a25e b63d
00000070: 9558 37ba 8bd9 853d d5c1 9cbd 23c6 103c
00000080: 891e 043d 8e6c bcbb cf39 e3bc b58a 493d
00000090: 84a9 41bd 2617 a33d 3c6a 973d 6416 aa3d
000000a0: 0f35 b6bc 7b74 593d 7d9e a9bd 280f 88bd
000000b0: dbd1 173c 62e0 4d3d e0eb 893d 82d9 c1bb
000000c0: 3c1b 8abd 8429 ae3d 0b91 55bd 374c e23c
000000d0: dc77 b3bc ebde 353d 8885 afbd ad81 da3c
000000e0: 3935 25bd 8443 313d c13c abbd 40e3 223c
000000f0: d79a 8cbd 8e48 903d 6475 2e3d e165 b8bc
00000100: b91d d43c 2dc4 353c 46a5 503d ff5d 273d
00000110: d51d f5bd 7d0d 833c 1c2a 993d 7348 9ebd
00000120: b3ff 8dbc ec9b 92bd 3882 af3c e4d7 263c
00000130: 164b b03a b23e 9fbd fe70 a43d d6fd 87bd
00000140: 6cf5 9fbd f438 003c eb12 1fbd c345 99bd
00000150: d42a 9dbc 6de7 c4bd c0cf 8ebd 069e b1bd
00000160: 45ec af3d ab2b 4f3d dc50 29bd c39d 8e3c
00000170: 5d0a 873d 344d 9bbd 2772 81bb 16eb 86bb
00000180: bdfc 203d 1b00 983c 07d8 e6ba 208c 423c
00000190: 7063 9fbd 0356 ab3d 04d0 24bd 53de 94bd
000001a0: 4dfb 19bd fb64 d8ba 38da 91bd d3d2 023d
000001b0: 656e babc b5ec 0bbd eb52 a7bd b1f7 99bd
000001c0: 10f4 45bd 2659 8abd aa7d 21bc 4106 05bd
000001d0: aff8 88bd 39e7 33ba f7c8 813d cbfa b43d
000001e0: d97d 2fbd c840 d8ba e0eb 8ebd d4d7 283d
000001f0: f1f5 cbbc 2f4a 793d ce4a 26bd 194e 7c3d

conv3.lin_r.weight f4 [128, 128]
-0.07210886 -0.024669394 -0.06954561 -0.026214264 -0.0032496278 -0.003472746 0.0075887647 0.049209632
-0.053012215 0.036573127 -0.04927232 0.034666564 -0.03203452 -0.04545837 -0.05304763 0.037243076
0.033314828 0.027841901 0.03712319 -0.08632181 -0.05239349 -0.09864357 0.020103537 -0.07181725
0.03317012 -0.06183885 0.00023351693 -0.08168503 0.032748803 0.030676987 -0.072256245 0.10388355
-0.047645606 0.04414211 -0.085259706 0.03519826 0.07635229 0.09937909 -0.061623048 0.03738142
-0.02686572 -0.0021094058 -0.05251361 0.04274139 -0.011806286 -0.027883455 0.014047514 -0.034612
-0.020385578 -0.02963004 0.005864194 -0.046333715 0.031224653 -0.08824487 -0.038809706 -0.086658046
0.08407097 0.056200325 0.12462778 -0.013772077 0.0707973 -0.049677722 -0.0045091207 0.094363205
-0.0018265672 0.007856126 -0.066603705 0.056984633 0.018197814 -0.04688231 0.004475906 -0.08677385
-0.052916765 0.034645684 -0.058473423 0.080816306 0.039175827 0.11654668 -0.069507815 -0.009584086
-0.045567106 -0.041243233 -0.093522996 0.04642281 0.03690127 0.008114902 -0.017126428 0.03118681
0.08586312 -0.06591144 0.02300759 -0.034780476 0.024884949 0.09120042 -0.011045796 0.073483355
0.05835874 -0.04603767 0.020130388 0.014742938 0.018397616 0.088230185 -0.064788744 0.040454216
0.022102207 -0.029284889 0.059065953 0.045042038 -0.07532122 0.033426367 0.06350409 0.06817633
-0.033855934 0.036955357 0.052639764 -0.0826937 -0.037200067 -0.05501195 -0.018634569 0.04178873
-0.030803433 0.056655295 -0.05901589 -0.007838047 -0.011762022 0.0327765 0.072720565 0.08383864
-0.05119186 -0.043473568 -0.074736714 -0.070915975 0.03867068 0.00094567833 0.0755924 -0.05151972
0.06161289 -0.030128194 0.07913146 -0.042462483 -0.024960786 0.018716313 0.012688119 -0.069819205
0.01263797 0.040463418 -0.11066613 -0.07498092 -0.029387305 -0.034260336 0.07227331 -0.019050857
0.024491835 -0.13938467 -0.036210645 -0.030315451 0.013332797 -0.048952974 -0.012632491 -0.08896277
0.033648208 0.07932279 0.055831928 0.0020717338 -0.0051285867 -0.044335272 -0.061200324 -0.040333033
-0.007665827 0.089791626 0.022607854 0.032020673 -0.011180203 -0.018896634 0.07219142 -0.06260574
0.014554005 0.07070796 0.030052474 0.051800046 0.06903642 0.022456162 -0.035485025 -0.065498605
0.005947782 -0.08394179 0.05382137 -0.088805 -0.043005366 0.051625885 -0.023602638 -0.00022049039
0.07214411 -0.015103666 0.018767891 -0.01048917 0.057924222 -0.030656215 -0.004495307 -0.042860802
0.052698288 -0.07049593 0.0015028204 -0.009921447 0.027451359 -0.003230541 0.0033540279 -0.0032963764
0.02928785 -0.053634807 0.0048532155 0.011344725 -0.04334736 0.042993277 0.037725598 -0.034213614
0.04948726 -0.0014625117 0.07492998 0.07268841 0.077503204 0.094801106 -0.033092305 0.064400055
0.06888703 0.047687184 0.07741407 -0.05820239 -0.006345781 0.0045296084 -0.055635136 -0.0820449
-0.054669593 -0.038391307 -0.028852029 -0.04817024 -0.0907111 0.055895116 -0.04881994 0.035067216
-0.006061655 -0.038857665 0.09584582 0.057342477 -0.09454356 0.04819196 0.102837555 0.030844389
-0.003950051 0.0163536 -0.005636089 0.024113739 0.05806108 0.08281487 0.038041327 0.0677178
00000000: cfad 93bd 7817 cabc ee6d 8ebd 4cbf d6bc
00000010: b5f7 54bb 0297 63bb 2cab f83b 0a90 493d
00000020: 5623 59bd b4cd 153d c6d1 49bd 87fe 0d3d
00000030: a136 03bd 8e32 3abd 7948 59bd 328c 183d
00000040: 2175 083d b314 e43c 7c0e 183d 7dc9 b0bd
00000050: 8e9a 56bd a405 cabd 2cb0 a43c ec14 93bd
00000060: 64dd 073d bc4a 7dbd 39dc 7439 7b4a a7bd
00000070: 9c23 063d 4e4e fb3c 15fb 93bd e6c0 d43d
00000080: 0a28 43bd 5bce 343d a49c aebd 0d2c 103d
00000090: 975e 9c3d 4487 cb3d 7368 7cbd 431d 193d
000000a0: 8015 dcbc f53d 0abb 8318 57bd 9911 2f3d
000000b0: 276f 41bc d86b e4bc 8b27 663c 50c5 0dbd
000000c0: a8ff a6bc b3ba f2bc 6d28 c03b 6cc8 3dbd
000000d0: d8ca ff3c bab9 b4bd edf6 1ebd c679 b1bd
000000e0: 672d ac3d 5032 663d d93c ff3d 47a4 61bc
000000f0: 2dfe 903d de7a 4bbd 3fc1 93bb 7f41 c13d
00000100: 6d69 efba fbb6 003c 8667 88bd b868 693d
00000110: 9513 953c aa07 40bd 9faa 923b 7db6 b1bd
00000120: 40bf 58bd a2e8 0d3d d481 6fbd 0583 a53d
00000130: d576 203d 07b0 ee3d 1d5a 8ebd 9206 1dbc
00000140: 93a4 3abd aaee 28bd fc88 bfbd d825 3e3d
00000150: c925 173d 5ef4 043c b94c 8cbc 7b7b ff3c
00000160: 01d9 af3d 94fc 86bd 6a7a bc3c f975 0ebd
00000170: 85db cb3c 49c7 ba3d 6df9 34bc 717e 963d
00000180: 9309 6f3d ff91 3cbd 7ce8 a43c 5d8c 713c
00000190: 99b6 963c 07b2 b43d f6af 84bd 52b3 253d
000001a0: b00f b53c dde6 efbc 24ef 713d 007e 383d
000001b0: 0342 9abd 16ea 083d 6f0e 823d 08a0 8b3d
000001c0: 85ac 0abd 805e 173d cb9c 573d 515b a9bd
000001d0: 195f 18bd 3654 61bd 86a7 98bc a92a 2b3d
000001e0: 7b57 fcbc 620f 683d a5ba 71bd 276b 00bc
000001f0: 7fb5 40bc a740 063d 85ee 943d 98b3 ab3d
00000200: 8eae 51bd 5711 32bd 900f 99bd 653c 91bd
00000210: 2665 1e3d 66e7 773a 30d0 9a3d 5806 53bd
00000220: cc5d 7c3d 67cf f6bc ad0f a23d 24ed 2dbd
00000230: 907a ccbc f452 993c d4e1 4f3c 5ffd 8ebd
00000240: 7d0f 4f3c f8bc 253d eda4 e2bd 998f 99bd
00000250: a5bd f0bc 9154 0cbd 0704 943d 8b10 9cbc
00000260: 1aa3 c83c dbba 0ebe 9d51 14bd 1c58 f8bc
00000270: ce71 5a3c ea82 48bd 82f8 4ebc 1d32 b6bd
00000280: b4d2 093d fd73 a23d 05b0 643d edc5 073b
00000290: b40d a8bb e798 35bd 31ad 7abd 4034 25bd
000002a0: 9e31 fbbb ace4 b73d 1b34 b93c 1c28 033d
000002b0: 2c2d 37bc 1dcd 9abc 18d9 933d 7037 80bd
000002c0: ec73 6e3c 56cf 903d 9b30 f63c 492c 543d
000002d0: f762 8d3d fcf5 b73c bf58 11bd 2224 86bd
000002e0: 9de5 c23b ace9 abbd cc73 5c3d 65df b5bd
000002f0: 6526 30bd aa75 533d 525a c1bc 7033 67b9
00000300: 4bc0 933d 5e75 77bc 1fbf 993c c5da 2bbc
00000310: f341 6d3d be22 fbbc 5e4d 93bb cf8e 2fbd
00000320: 29da 573d 2c60 90bd 49fa c43a 918d 22bc
00000330: ace1 e03c 7cb7 53bb 40cf 5b3b 0508 58bb
00000340: 13ed ef3c 2cb0 5bbd b907 9f3b 3adf 393c
00000350: 008d 31bd b819 303d 2886 1a3d 9323 0cbd
00000360: 27b3 4a3d c0b1 bfba e474 993d a9dd 943d
00000370: 00ba 9e3d 1527 c23d cc8b 07bd 2de4 833d
00000380: a514 8d3d a353 433d 458b 9e3d a165 6ebd
00000390: 45f0 cfbb 1c6d 943b abe1 63bd 2807 a8bd
000003a0: 39ed 5fbd 3440 1dbd 175b ecbc 284e 45bd
000003b0: bec6 b9bd 47f2 643d 6bf7 47bd a4a2 0f3d
000003c0: d9a0 c6bb 3729 1fbd d04a c43d f2df 6a3d
000003d0: 0ea0 c1bd ef64 453d 7f9c d23d 5fad fc3c
000003e0: 6e6f 81bb fcf7 853c f1ae b8bb 2d8a c53c
000003f0: 74d1 6d3d d89a a93d 39d1 1b3d a1af 8a3d
